models/Segnet.pth (torch, 498038 bytes, 61 tensors)

encoder1.sequence.0.block.0.weight f4 [16, 3, 3, 3]
000000 84 54 3f be ff 3c 5b bc 4e 6d aa bd bb d5 a0 bd
       -0.18684584 -0.013381242 -0.083216295 -0.07853266
000010 fd 13 ee bd 5f 26 77 bd 02 b0 ec bd 51 ed 06 3e
       -0.11624906 -0.060339328 -0.11557008 0.13176467
000020 18 96 8c bd 9b 43 9d 3c 18 86 da 3d fd 36 95 3d
       -0.068645656 0.019197276 0.106701076 0.07285879
000030 d0 b4 8e 3d 24 e1 37 be 74 45 43 be c1 b5 d1 3d
       0.06968081 -0.17956978 -0.19069463 0.10239745
000040 40 fb 05 3e 16 21 3b 3d 4b 4c a3 3c e0 ff d9 3d
       0.13084126 0.04568585 0.01993384 0.106445074
000050 97 7b 1c be b9 a5 22 3d 20 f2 32 3e 93 9e ab 3d
       -0.15281521 0.039708827 0.17475176 0.08379855
000060 22 01 a2 bd ab ce 2a 3e 69 0a 41 3e ee 37 34 3d
       -0.07910372 0.166804 0.18851627 0.04399865
000070 f0 c9 97 3d 04 a8 1f be ba 1b 09 bd 9f d1 0a 3e
       0.074115634 -0.15591437 -0.033473708 0.13556527
000080 24 3c 42 3d 84 0d e9 bd 23 d3 a6 3d 51 5f 85 bd
       0.047420636 -0.11379531 0.0814574 -0.06512321
000090 55 6c 1d 3e 2a c8 8a bd 2b a2 cc 3d 4b 14 25 3e
       0.15373357 -0.067764595 0.099918686 0.16121022
0000a0 ba 37 ae bd 0b 1c 20 be ad 83 f8 bd 10 11 c3 bd
       -0.08506723 -0.15635698 -0.1213449 -0.09524739
0000b0 83 1d a2 bd 92 12 55 3d 14 2f c4 bd 91 3f 3a be
       -0.07915785 0.052019663 -0.09579292 -0.18188311
0000c0 71 be 24 be 15 72 3e be 6a 04 5a bd 9d 62 4c bd
       -0.16088273 -0.18598206 -0.053226866 -0.049898732
0000d0 73 bb f5 bd 94 61 0e be 68 80 3c bd c6 e5 43 3e
       -0.11998644 -0.1390441 -0.046020895 0.1913062
0000e0 2c 53 79 bd d1 7b 2f be a6 7a b1 3d eb 8a 86 bb
       -0.060870335 -0.17137076 0.086659715 -0.004105916
0000f0 11 4b 22 3e 33 ca 1a be 2f 6a d4 3d fd df 26 3e
       0.15848948 -0.15116195 0.103718154 0.16296382
000100 6a 6a 19 be d4 af 3a bd 48 b2 17 3e 79 57 08 3e
       -0.14982 -0.04557784 0.14814103 0.13314618
000110 54 da 42 be 08 0e a5 3d be f9 2e 3e 30 0a 6f bd
       -0.19028598 0.08059317 0.17087457 -0.058359325
000120 7e 58 16 3e 6e 91 b3 3d 8b 8f 10 be 89 92 96 bd
       0.14682195 0.08767973 -0.14117257 -0.07352168
000130 9c d6 a6 bd a6 e2 1d bc 01 c0 a6 3c aa cc df bc
       -0.08146402 -0.009636557 0.020355226 -0.027319271
000140 d8 4d 08 3e 03 05 04 3e d2 8e b1 3c 85 07 9a 3c
       0.13310945 0.12892537 0.021674547 0.018802414
000150 46 54 18 3e 52 72 eb bc e9 fe 85 bd 75 e2 ad bd
       0.14875898 -0.028741036 -0.06542761 -0.08490459
000160 1a 5a c7 ba b4 5f 82 3d cd 47 06 3e a8 d1 40 3d
       -0.0015209347 0.0636591 0.13113327 0.047074944
000170 62 1d 0e bd 01 4c 09 be 50 f3 dc 3d 29 1a 21 be
       -0.03469599 -0.134079 0.10788596 -0.15732636
000180 8e d6 ae bd 38 53 9a bc 5f a9 13 be 65 66 66 bc
       -0.08537017 -0.01883851 -0.14420079 -0.014062499
000190 4e ab d2 3c b1 a0 a7 3d b2 4f 48 3c 9d 48 df bd
       0.02571645 0.08184946 0.012226032 -0.10902522
0001a0 9e 95 20 3e d0 a6 b4 bd a9 21 80 bd 59 ea 85 bd
       0.15682074 -0.088208795 -0.0625642 -0.06538839
0001b0 f2 58 21 3d d1 59 10 3d 59 5c 04 3e 08 8a 0c 3e
       0.039391465 0.035241906 0.12925853 0.1372453
0001c0 35 b4 0a 3e c0 49 86 3d 14 e3 47 3c 47 f6 1f be
       0.13545306 0.065570354 0.012200136 -0.15621291
0001d0 3b c6 ef 3d ba 1b c0 bd a4 47 8e bd 96 bd 01 be
       0.11707731 -0.093802884 -0.06947258 -0.12669978
0001e0 4c 8d bb bd d9 23 a9 3d c1 be ac 3b df bb 91 3d
       -0.091578096 0.082587905 0.005271763 0.07115912
0001f0 99 bb 4c bd 4e 06 86 bd 5a bf 0a be 30 33 fe 3d
       -0.049983595 -0.06544171 -0.13549557 0.12412107
000200 e5 ef ce bd 4f b4 82 3d a6 a7 f3 3d 00 42 79 3d
       -0.1010435 0.063820474 0.11897211 0.060853958
000210 e8 5c c2 bd 26 3d a1 3d 7e 7b 9b bd 2c 7e fb bc
       -0.09490377 0.07872991 -0.07591914 -0.030699812
000220 55 d3 42 3e 02 07 b4 3d f9 f7 6b 3c 94 53 11 3e
       0.1902593 0.08790399 0.014402383 0.14192039
000230 c0 a3 35 3e 89 ce 06 bd b4 c6 db bd c5 46 1d 3e
       0.17738247 -0.03291181 -0.10731259 0.15359028
000240 a8 ef 2d 3e ac 8d b0 3d 15 14 e8 bd dc 62 19 3e
       0.16985953 0.08620772 -0.11331955 0.14979118
000250 b3 5f 36 be fa 39 1b be 91 37 cb bc 79 d3 15 be
       -0.17809944 -0.15158835 -0.02480677 -0.14631452
000260 e5 93 e8 bd e0 34 f9 bb 70 e1 d6 bd 76 fd 95 3d
       -0.11356334 -0.00760518 -0.104922175 0.073237345
000270 20 1a 9f bd 5f ab 6d 3d 5f fd c4 bd d4 92 d2 bd
       -0.07768655 0.05802476 -0.09618639 -0.102819115
000280 5f 24 ed 3d 98 5e c2 bd 85 9a bc 3d f9 05 a0 bd
       0.11579203 -0.094906986 0.0920916 -0.07813639
000290 9f 33 41 bb 28 26 29 3e 6b 63 87 bd 1b fc eb bd
       -0.0029480231 0.16518462 -0.06610759 -0.11522695
0002a0 36 10 1c be 8b 34 7d bd 93 20 ad 3d 4b 74 98 3c
       -0.15240559 -0.061817687 0.08453479 0.01861014
0002b0 1e 6e 1c 3e a3 1d ae bc 14 48 2c 3e cc c7 28 be
       0.15276381 -0.021254366 0.1682437 -0.16482466
0002c0 4e 9e 37 3e 23 9e 40 be fc f1 aa bc 9a f4 72 bd
       0.17931482 -0.18810324 -0.02086734 -0.0593153
0002d0 f1 e5 c9 bd 46 86 14 be 91 0d a8 bb cf 9a 10 bd
       -0.09858311 -0.14504346 -0.0051285704 -0.035303887
0002e0 9c 4a 30 3d 89 36 14 bd 82 ed d5 3d fa 3e 14 be
       0.043039903 -0.03618482 0.10445692 -0.14477149
0002f0 38 6b c0 bd 8c e0 d7 bb 22 bd 05 be f4 d0 c4 3d
       -0.0939545 -0.0065880474 -0.1306043 0.09610167
000300 ea 7f c0 3d dc 1c bc bd f5 e9 d6 bd c2 1c 77 bd
       0.09399398 -0.09185192 -0.104938425 -0.06033016
000310 40 87 20 be a6 bf b9 bd 9f 47 20 be 49 5e 0d be
       -0.15676594 -0.09069757 -0.15652321 -0.13805498
000320 28 72 e8 bd b0 e0 07 3e c1 b0 83 3d 30 58 51 3d
       -0.113498986 0.13269305 0.064301975 0.051109493
000330 1f 38 a5 3d ee 51 9c 3d 41 48 b8 3d b6 ce f3 3c
       0.08067345 0.07632814 0.08998156 0.029761653
000340 9d a4 cc 3d ae 0b 2b be a8 fe 16 bd c2 2d 28 3e
       0.09992335 -0.16703674 -0.036863953 0.16423705
000350 a4 da 1e 3c ef bb 24 bc ac dc 39 3e 5e d9 0b 3e
       0.009695683 -0.0100545725 0.18150586 0.13657138
000360 d7 45 23 3e 1c eb 1c be 72 c0 97 bb ff 53 90 3d
       0.1594461 -0.15324062 -0.0046310956 0.07047271
000370 b2 cf f4 3d 2f 28 a1 3c 90 4a d3 bd 9b 2b c4 3d
       0.11953677 0.019672481 -0.10316956 0.095786296
000380 17 db e9 bd 29 f2 89 bd 9a bd 96 bd b2 95 dd 3c
       -0.11418741 -0.067356415 -0.073603824 0.02704892
000390 ae 18 2c 3d 02 6e 5f bd 49 5c b1 3d a1 5d fc 3d
       0.042015724 -0.05454827 0.0866018 0.12322546
0003a0 e2 e7 3c 3e ea 19 a6 bc 88 ce 1f 3e 18 12 82 bd
       0.18447831 -0.020276029 0.15606129 -0.06351107
0003b0 9e a1 fa 3d e5 bc b9 3d 5c 1c ee 3c 03 be 89 bd
       0.12237857 0.09069232 0.029066257 -0.06725695
0003c0 36 1c 86 3d d1 19 84 bd 13 ec 27 3b 94 5a 79 ba
       0.065483496 -0.064502366 0.002562289 -0.00095120934
0003d0 71 f1 ae 3d 7e ad 8a bd 64 d2 c6 3c 38 28 8d bc
       0.08542145 -0.06771372 0.024270244 -0.017231092
0003e0 db 1d 1d be 2c 82 2e be ed 8f 32 3e 86 83 df 3d
       -0.1534342 -0.17041844 0.17437716 0.10913758
0003f0 13 45 a9 3c 44 b3 32 3e 23 e6 8e 3d a9 9f 05 be
       0.02066282 0.17451197 0.06977489 -0.13049187

encoder1.sequence.0.block.1.weight f4 [16]
000000 fa fe 7f 3f 6c 01 80 3f 68 fb 7f 3f 1d 01 80 3f
       0.9999844 1.0000434 0.9999299 1.000034
000010 04 01 80 3f 15 01 80 3f 43 00 80 3f 88 00 80 3f
       1.000031 1.000033 1.000008 1.0000162
000020 6a 01 80 3f c4 f6 7f 3f ba 03 80 3f a2 f5 7f 3f
       1.0000432 0.9998591 1.0001137 0.9998418
000030 d4 02 80 3f 0b 00 80 3f 61 fe 7f 3f ad ff 7f 3f
       1.0000863 1.0000013 0.99997526 0.99999505

encoder1.sequence.0.block.1.bias f4 [16]
000000 87 fd c3 b7 12 41 3f 38 5d bd 6e b8 4c 2e 44 38
       -2.336387e-05 4.559855e-05 -5.691998e-05 4.677316e-05
000010 3d a1 29 38 7f aa 8d 37 6b 63 9f 37 a6 03 3c b5
       4.0442905e-05 1.6887903e-05 1.9000572e-05 -7.0040767e-07
000020 e3 16 33 38 e3 02 e4 b8 51 a3 a0 38 50 35 ed b8
       4.269824e-05 -0.00010872425 7.6598146e-05 -0.00011310971
000030 08 41 8e 38 a0 5a 8a b7 d4 50 48 38 2e 58 e4 36
       6.783201e-05 -1.6493083e-05 4.7758993e-05 6.805195e-06

encoder1.sequence.0.block.1.running_mean f4 [16]
000000 83 17 9d 40 30 ae f4 c1 49 6e 25 41 33 e4 6e c0
       4.90912 -30.585052 10.339425 -3.7326782
000010 3b 91 ba 40 20 30 d8 3e cd 5a 56 c1 7a fa 10 40
       5.8302283 0.42224216 -13.397168 2.2652879
000020 c8 64 7e 41 cf 9f 23 41 97 f1 e1 40 b6 42 b1 41
       15.899605 10.226516 7.060741 22.157574
000030 bb 61 38 41 c5 e6 a8 bf c0 ab ae c0 d5 0a 02 41
       11.52386 -1.3195425 -5.4584656 8.127645

encoder1.sequence.0.block.1.running_var f4 [16]
000000 96 bc 18 43 b4 f1 a1 44 9c f0 3c 43 22 51 64 42
       152.73666 1295.5532 188.93988 57.07923
000010 27 87 d1 42 32 d5 d1 42 8c 15 82 43 89 1e c1 42
       104.76397 104.9164 260.16833 96.55964
000020 72 9d ad 43 d1 5f 11 43 11 a5 aa 42 2b a7 32 44
       347.23004 145.37428 85.322395 714.612
000030 3a e0 5f 43 92 19 57 42 6e d3 d3 42 4e 36 17 43
       223.87589 53.77497 105.91295 151.21213

encoder1.sequence.0.block.3.weight f4 [16, 16, 3, 3]
000000 0b c8 1f bd f7 0d 1e bd e4 45 30 bd 13 19 17 3d
       -0.039009135 -0.038587537 -0.043035403 0.036889147
000010 ea 06 df bc 82 ae 1c bd e6 ad 4f 3d a1 a0 34 bc
       -0.027224977 -0.03825236 0.05070295 -0.011024625
000020 40 e7 e8 bc 1e 71 f5 bc 83 28 88 3d 0f 22 bc 3c
       -0.028430581 -0.029961165 0.06648352 0.02296546
000030 46 e0 60 3d 54 24 89 bd 50 76 84 bd 6b a9 04 3d
       0.054901384 -0.06696382 -0.06467879 0.032388132
000040 41 7e 02 bd 22 f6 24 bd fa bf af 3b d8 06 26 3d
       -0.031858686 -0.040273793 0.0053634616 0.04053387
000050 b5 5c 04 3d 43 67 92 3d 69 9e 7d bd f5 57 40 bd
       0.032314975 0.07148602 -0.06191865 -0.046958882
000060 60 eb 5e 3d bc b4 d9 3c 81 5f 89 3d 42 06 a6 3d
       0.05442369 0.026575439 0.06707669 0.08106662
000070 74 b2 2e 3c a7 84 23 bd 88 90 9a 3d 36 ce 86 bd
       0.010662664 -0.03992143 0.075470984 -0.065823
000080 85 34 67 bd e8 68 74 bd 5e 4c 11 3d 96 fa 8f 3d
       -0.05644657 -0.05967036 0.03547322 0.07030217
000090 67 23 92 bd 85 70 72 bd 43 0c 7b bd 97 96 19 3c
       -0.07135659 -0.05918934 -0.06129099 0.009374282
0000a0 cb e2 a4 3d ac 32 ae 3c ff 1d 9b bd 3d 23 5c bd
       0.0805107 0.021264397 -0.07574081 -0.053744543
0000b0 54 b5 a8 bc ec f2 74 bc fd 83 ab 3b b8 9c 39 bd
       -0.020594276 -0.014950495 0.00523424 -0.045315474
0000c0 f7 f5 24 3d 10 82 b1 bc 44 4c 58 3d 0d e9 b1 bb
       0.040273633 -0.021668464 0.052807108 -0.005429393
0000d0 f3 35 2c bc 12 37 0e bd 57 e9 05 bd ee a0 95 3d
       -0.010510909 -0.034720488 -0.032693233 0.073060855
0000e0 76 b7 8d bd 19 76 42 bd 24 80 79 bd 08 83 8f bd
       -0.06919758 -0.047475908 -0.06091322 -0.07007414
0000f0 26 a4 b3 3c 2f 61 ba b9 c8 09 2e bb 04 35 16 bd
       0.021928858 -0.00035549092 -0.0026556123 -0.036671653
000100 dd 06 03 3d 19 ad 86 3d 1b 09 3e 3c a3 b8 d1 3c
       0.031988967 0.065759845 0.011598851 0.025600737
000110 e3 03 e7 bb 48 42 93 bd b1 65 72 3c 9b 29 8f 3d
       -0.007050024 -0.071903765 0.014794753 0.069903575
000120 39 90 80 3d fe 17 56 bd e8 ce 20 bd f4 fd a9 3c
       0.06277508 -0.052268974 -0.03925982 0.020750977
000130 3e 37 4d bd ff 48 4a 3d 43 79 6c 3c 12 b4 19 3d
       -0.05010151 0.04938602 0.014433208 0.037525244
000140 58 3a 90 bd ba 26 84 3c a4 e8 37 3b af 12 4f bd
       -0.07042378 0.016131748 0.0028062249 -0.050554927
000150 ef 90 3c bd 0a 9a 85 3d 57 1f a3 3d 46 23 90 3d
       -0.046036657 0.06523521 0.07964962 0.07037978
000160 67 71 43 bd 7f 21 a6 3d 49 13 66 bd 0f 17 4f bd
       -0.04771557 0.081118576 -0.056170736 -0.0505591
000170 cd f1 c9 bc cd 07 9d 3d 69 9b 76 3c 6b 7c 1a bd
       -0.024651432 0.076675035 0.015051701 -0.03771631
000180 29 db 6e bd d0 06 da bc 16 73 33 bd 4f 6b 1c bd
       -0.058314476 -0.026614577 -0.043810926 -0.038188275
000190 3b 4e 8d 3c 24 74 67 bd ce 4b 71 bc 0e 49 41 3d
       0.017249217 -0.056507245 -0.014727546 0.04718881
0001a0 93 91 01 3d 1a b1 44 3d 29 f6 27 3c f3 7c 86 bc
       0.03163297 0.04802046 0.01025156 -0.016417002
0001b0 8a 95 1e 3d 89 24 d4 3c 70 58 58 3c ec 94 79 bd
       0.03871683 0.025896328 0.013204679 -0.06093304
0001c0 2e 37 73 bd 79 f5 a7 bd 6a ca 57 3d 6a e9 87 3d
       -0.059378795 -0.08201117 0.05268327 0.06636317
0001d0 aa 12 84 3d 41 7c bf 3b 51 f4 60 3b 0e b7 4c 3d
       0.064488724 0.0058436696 0.0034325311 0.049979262
0001e0 e0 e9 60 3d 93 f9 8f bd 07 0f 27 bd c2 94 1b 3d
       0.05491054 -0.070300244 -0.040785816 0.037983663
0001f0 43 55 87 3b db e3 9b 3d bf ba c9 bc a8 57 a9 3d
       0.004130037 0.07611819 -0.02462518 0.08268672
000200 ad 82 30 3c b7 da fd bc ee 90 fa bc 26 7e a5 bd
       0.010773343 -0.03098808 -0.030586686 -0.080807015
000210 15 07 96 bd c3 4e 9b bc 8e 0b 8e 3d 0f 9d 12 3c
       -0.073255695 -0.018958455 0.06935798 0.0089485785
000220 a1 20 89 3d a5 bc dd bc 94 4f 08 3d 4c 14 78 bd
       0.066956766 -0.027067492 0.033279017 -0.06056623
000230 8b ac cd 3c e0 0f 94 3d be ab 9b 3d ac e1 99 39
       0.025106689 0.072295904 0.076011166 0.00029350573
000240 b7 29 08 bd 68 d9 6e 3d e0 22 a8 3d 17 6d 8e bd
       -0.033242907 0.058312804 0.08209777 -0.06954401
000250 16 ed b0 3c 80 22 61 bd c2 6c 73 bd 9d 48 45 3d
       0.021597426 -0.054964542 -0.05942989 0.048164953
000260 cc 27 0b bd 52 7d fa 3b c5 67 e6 3c 8c ac 86 3d
       -0.0339735 0.007644334 0.028125653 0.065758795
000270 bd 46 e0 bc 75 48 87 bd d9 20 6b 3d a3 fa 91 bd
       -0.02737748 -0.06605617 0.057404373 -0.07127883
000280 95 f4 45 3d 5c 89 5d 3b ad 4d a6 bd 05 e6 7f bd
       0.048328955 0.0033803796 -0.08120284 -0.062475223
000290 78 32 7e bc 5a d9 c4 bc c2 b7 2d bd ad 48 98 bd
       -0.015514962 -0.024029423 -0.042411573 -0.07435737
0002a0 22 d2 db 3c 26 eb 19 ba d2 1e 46 3b 9a b1 78 3d
       0.026833598 -0.00058715267 0.0030230773 0.06071625
0002b0 be 64 b1 bc a7 56 29 ba 5b 61 a6 3d 03 30 44 bc
       -0.021654483 -0.00064597506 0.08124038 -0.0119743375
0002c0 7b c4 09 3d 09 ee d9 3c 95 c0 90 bd ef 93 a8 bd
       0.033634644 0.026602762 -0.07067982 -0.08231341
0002d0 1e 2f 74 ba 19 48 6b bd 73 73 75 bd e5 23 e7 bc
       -0.00093148823 -0.057441805 -0.059924554 -0.028215358
0002e0 a7 bb 9c 3d 4a 6d 64 3d 66 bb 9a bd c9 3e 87 bd
       0.07652979 0.05576829 -0.07555275 -0.06603772
0002f0 ba bc 70 3c bb d7 be 39 10 f4 15 3d a8 a9 cf 3a
       0.014693433 0.00036400356 0.03660971 0.0015843408
000300 6c 08 18 3d 3d 68 91 3d e8 14 4b 3b 70 31 6a 3d
       0.037117407 0.0709996 0.0030987803 0.057176054
000310 fe 4a 96 bd d3 a9 00 bd a9 67 81 bd d8 dd 06 bd
       -0.073385224 -0.031411957 -0.063186 -0.03292641
000320 df 59 a5 3d 4d 4d 4c bd b0 30 c8 bc 01 0e 80 bd
       0.08073782 -0.049878407 -0.024437279 -0.06252671
000330 14 54 8d 3d f4 b3 68 bc e5 a4 10 3c b5 52 3b 3d
       0.06900802 -0.01420306 0.008828376 0.045733172
000340 d8 45 ea bc e2 a6 71 bd 33 73 90 bd d0 a2 8e 3d
       -0.028597757 -0.058997042 -0.070532225 0.06964648
000350 7a e8 4e 3d 97 b3 d8 3c 98 cd 9b bc 7f 67 64 bc
       0.050514676 0.026452823 -0.019018933 -0.013940691
000360 7c 06 58 3d d0 31 f0 3c bf 57 43 3d 4a 02 e6 3c
       0.05274056 0.029320627 0.047691103 0.028077263
000370 d6 f6 e2 3c fb 12 a2 3d ef 51 48 bd 76 ff 87 bd
       0.027705591 0.079137765 -0.048906263 -0.06640522
000380 84 7d 81 3d ee ce 3d 3d 41 03 27 3d f3 af f3 3c
       0.06322768 0.04633992 0.040774588 0.029746985
000390 34 85 0d ba c2 12 37 3c d3 b6 76 3d 2c ac a6 bd
       -0.0005398572 0.011173906 0.06023295 -0.08138308
0003a0 5e 62 9f bd a6 0a a9 3d 48 94 87 bd 60 f2 5c 3d
       -0.07782434 0.08253984 -0.06620079 0.053942084
0003b0 4f 64 e6 bc de 79 a0 bc 9b 8b 91 3d 1a 85 14 3c
       -0.028124003 -0.01958936 0.07106706 0.009064937
0003c0 bd 45 04 3d a5 48 95 3d 06 4c 49 bd da 03 b0 3b
       0.03229307 0.072892465 -0.049144767 0.005371553
0003d0 8d 64 30 bd c6 80 47 bd 8d 20 97 bd c8 48 e5 3b
       -0.043064643 -0.048706792 -0.073792554 0.0069972016
0003e0 c1 4d 04 b9 3c 10 5b 3c b2 b2 f2 bc be f1 bd bc
       -0.00012617467 0.01337057 -0.029626224 -0.02318656
0003f0 b6 26 86 bb 9f 68 5f 3c ec 77 47 3d 25 4c 67 3c
       -0.00409397 0.013635783 0.04869835 0.014117275

encoder1.sequence.0.block.4.weight f4 [16]
000000 e1 fe 7f 3f 8a 02 80 3f fe fe 7f 3f 17 fe 7f 3f
       0.9999829 1.0000775 0.9999846 0.99997085
000010 6b 01 80 3f 9f ff 7f 3f 15 fd 7f 3f 65 fe 7f 3f
       1.0000433 0.9999942 0.9999555 0.9999755
000020 a4 f2 7f 3f c2 f4 7f 3f 04 00 80 3f 24 02 80 3f
       0.99979615 0.99982846 1.0000005 1.0000653
000030 0d fe 7f 3f 35 fe 7f 3f ff 02 80 3f 6c 04 80 3f
       0.99997026 0.99997264 1.0000914 1.000135

encoder1.sequence.0.block.4.bias f4 [16]
000000 80 85 5e b7 85 ec fe 37 df 94 85 35 8f 20 fd b6
       -1.3263314e-05 3.0389298e-05 9.952599e-07 -7.543778e-06
000010 be 7b 4e 38 4b 5c 20 b7 d8 f6 83 b7 2d c3 f4 b5
       4.922947e-05 -9.558232e-06 -1.5731363e-05 -1.823622e-06
000020 04 93 6b 37 a5 3b a7 b8 e1 3e d0 b6 90 75 8c 38
       1.4041321e-05 -7.97429e-05 -6.206203e-06 6.697618e-05
000030 54 06 0c b8 9f 63 33 b8 20 de 68 38 44 9b c8 38
       -3.3384495e-05 -4.2769705e-05 5.551998e-05 9.565664e-05

encoder1.sequence.0.block.4.running_mean f4 [16]
000000 61 ff ed bc 3c 87 14 bd 69 cb c6 3e 8f 77 0c 3e
       -0.029052438 -0.036261782 0.38827065 0.13717483
000010 ee d6 68 be f4 58 0f 3e 1e 21 78 bd d9 f8 d6 3d
       -0.22738239 0.13998777 -0.060578458 0.10496683
000020 91 45 0f 3e a4 80 4b 3e 6e d4 5c bc 12 58 c3 3e
       0.13991381 0.19873291 -0.013478382 0.3815313
000030 be 8c 29 bc 01 ac ad be 6e c5 d5 3e 92 0a 36 3e
       -0.010348497 -0.3392029 0.4175219 0.1777747

encoder1.sequence.0.block.4.running_var f4 [16]
000000 12 1d c4 3d 34 89 52 3d 08 95 2b 3e 19 74 37 3d
       0.09575857 0.05140038 0.1675607 0.044788454
000010 d8 25 46 3e c9 dc 57 3d 61 8f 05 3e 20 d9 6b 3d
       0.19350374 0.05270079 0.13042976 0.057580113
000020 73 65 10 3d 1c 0f 52 3e 68 5d f4 3c 94 a6 06 3f
       0.035253 0.20513576 0.029829696 0.5259793
000030 a4 95 d9 3d 0a 15 93 3e 2f a3 b1 3e b9 d5 a6 3e
       0.10624245 0.2872699 0.34694812 0.32584932

encoder2.sequence.0.block.0.weight f4 [32, 16, 3, 3]
000000 41 06 41 3d 0d d5 8d bd d9 36 40 3d db 8c 8b 3d
       0.047125105 -0.06925402 0.046927307 0.068139754
000010 04 f6 96 bd cd 57 1b 3b 3c ef 14 3d 26 dd 82 3d
       -0.073711425 0.0023703456 0.036360964 0.06389837
000020 50 f5 f6 3b f2 42 2a bd f0 88 97 3d fe 10 9c bd
       0.0075365677 -0.04156775 0.07399166 -0.076204285
000030 2b 4e 0a 3c d6 97 62 3d 4e ab c3 bc bb 95 df bc
       0.008441488 0.055320583 -0.023885395 -0.027293077
000040 93 ff 0e bd ef b7 09 bd b7 56 86 bd 96 19 6d bd
       -0.034911703 -0.03362268 -0.06559508 -0.05788573
000050 71 a3 08 3d e1 c1 9e 3d a8 96 c6 3b f8 c0 3a 3d
       0.033358995 0.07751823 0.00606044 0.045594186
000060 59 09 22 bd df 80 b8 3c 44 85 37 bd 12 68 b6 bc
       -0.039559696 0.022522388 -0.044804826 -0.022266421
000070 2c d0 5d bd 01 cf a0 bd c3 0d 16 3d 8c 09 d9 bc
       -0.054153606 -0.07851983 0.036634218 -0.02649381
000080 22 7b ce bc b1 5b a4 bd f7 12 98 3d c7 2a 05 bb
       -0.025205199 -0.08025301 0.07425492 -0.0020319687
000090 83 e1 32 bd bb 47 1a 3c 48 0e 8e 3d 4f 7e c4 3c
       -0.043672096 0.009416516 0.06936318 0.02398601
0000a0 b2 70 8a 3d 64 78 a6 3d 20 72 9d bd 0d 97 88 bd
       0.06759776 0.081284314 -0.07687783 -0.06669436
0000b0 18 91 4d bd d1 0b a3 3c 62 0e 9b bb a1 d4 38 bd
       -0.0501872 0.019903095 -0.004731939 -0.045124654
0000c0 0f 1e 68 3d 3e 88 7d 3d 79 35 d3 3c ee 7c e5 bc
       0.05666929 0.06189751 0.025782334 -0.028013673
0000d0 52 04 aa 3d 17 bc ce 3c a5 6e d5 3c 95 cd dd bc
       0.08301605 0.025236173 0.026053736 -0.027075568
0000e0 a8 b6 72 3d 11 74 d9 bc 58 c8 4a 3d 6a 9f 8b 3d
       0.059256226 -0.026544603 0.04950747 0.06817515
0000f0 b9 bf 5e 3d 67 39 9b 3d af 15 a4 3c ae 2d a2 3d
       0.05438206 0.07579308 0.02002987 0.07918869
000100 86 2f 14 3c f4 00 93 bc a2 71 aa 3a 19 09 5f bd
       0.009044534 -0.01794479 0.0013003836 -0.054452036
000110 b9 6b b7 3c de 1c 64 bd 91 99 49 bd c5 cf 84 bc
       0.022390233 -0.055691592 -0.049218718 -0.016212353
000120 db 0e 99 bd 99 26 37 3d c0 7f 9a bd e5 92 1a bd
       -0.074735366 0.044714544 -0.07543898 -0.037737746
000130 72 0a be 3b d6 37 44 3d a6 d9 8c 3d 16 42 6c 3b
       0.005799585 0.04790481 0.06877451 0.0036050132
000140 d1 01 9e 3d c1 6c 2e bd ec 22 9b bd 95 fa a6 bd
       0.0771519 -0.042584185 -0.0757502 -0.081532635
000150 f2 50 98 bd da 76 3c bd 6d 95 03 3d 85 79 a5 bd
       -0.07437314 -0.046011783 0.032124925 -0.08079819
000160 c7 b6 1d 3c 07 92 f5 bc eb 58 45 3d 31 75 59 3d
       0.009626097 -0.029976858 0.048180502 0.053090278
000170 77 f0 9c 3d 23 5d 54 3d 82 78 8d 3c 74 a2 58 bd
       0.076630525 0.051846635 0.017269377 -0.052889302
000180 4e 57 dd 3c 17 f9 e6 3c a6 05 f8 bc 79 66 22 3b
       0.02701917 0.028194947 -0.03027613 0.0024780317
000190 72 7e 37 bd f7 c0 e6 3c 1a b9 c1 bb 30 ae 75 3d
       -0.044798322 0.028168185 -0.0059119584 0.05998057
0001a0 1b d8 3b bd 2b dd 10 3d fd a7 42 3d dc 43 86 3d
       -0.04586039 0.035367172 0.047523487 0.06555912
0001b0 3c 62 89 3d 7e 0a 4e 3d 3c 76 64 3d 85 4e 83 3d
       0.0670819 0.050302975 0.05577682 0.06411461
0001c0 51 f9 79 bd 87 46 32 3d 13 1b 1b 3d 13 9e ea 3c
       -0.061028782 0.04352429 0.037867617 0.028639829
0001d0 a7 8c 8b bc d8 1b a6 bd 99 0e dd 3c d0 12 81 bd
       -0.017034842 -0.081107795 0.0269845 -0.06302416
0001e0 bc b7 33 bd c2 92 46 3d c1 13 4b 3d 71 95 b0 bc
       -0.043876395 0.048479803 0.049579386 -0.021555634
0001f0 6d e8 3f bc 74 85 79 bd 99 b5 a0 3d 8b 10 49 bd
       -0.0117131295 -0.060918286 0.07847137 -0.049088042
000200 32 5d 90 3d cd 5b f2 3b 91 90 f0 3c 5b db d3 3c
       0.070490256 0.0073961974 0.02936581 0.025861433
000210 d1 38 0d 3d 96 73 88 bd 7e b9 16 3d bb 7b 0d 3d
       0.034478012 -0.06662671 0.036797993 0.034541827
000220 d1 a8 51 bd 70 85 ac 3c 18 ee 5f bd 7e 74 22 3d
       -0.051186386 0.021059722 -0.054670423 0.039661877
000230 b3 89 3d 3d 1d ca 34 3d 73 c4 4e 3c b5 fa 53 3d
       0.0462739 0.044138063 0.012620079 0.051752765
000240 2d 18 96 3d 9a 06 63 bd a4 07 ab bc 12 ac 2d bd
       0.0732883 -0.055426218 -0.020877667 -0.042400427
000250 6d 4f 95 bd 2c 83 84 bd 94 e0 0b bc 4a d7 65 3c
       -0.0729054 -0.064703315 -0.00853743 0.01402838
000260 af d0 19 bc ce 00 41 bd 02 9d ac 3c 59 34 7a 3c
       -0.009388133 -0.047119908 0.02107096 0.01527127
000270 16 d7 0d 3d ed c7 52 3d 60 d9 4b bd 60 0a c4 bb
       0.03462895 0.051460195 -0.04976785 -0.005982682
000280 f4 65 86 3d 8f bc 55 3d 96 80 89 bd 24 b1 56 3c
       0.06562415 0.052181777 -0.06713979 0.013103757
000290 22 49 6b bd 51 55 42 3d 97 4a 1b bb 95 4d 13 3b
       -0.05744279 0.047444645 -0.0023695582 0.0022476662
0002a0 20 35 91 3c bd c2 62 3b a7 33 a2 3d 44 04 30 bd
       0.017725527 0.0034600936 0.07920008 -0.042972818
0002b0 c1 76 6e bd 0e 95 03 bc 37 26 1c 3d 6a 34 7a 3d
       -0.05821872 -0.008031143 0.038122382 0.061085142
0002c0 63 94 c6 3c 65 93 ac 3c 71 1a 92 bc 2d 4d 85 3d
       0.024240678 0.021066377 -0.017834874 0.06508861
0002d0 3f 46 f3 3c 35 08 67 bd 72 cc 7c 3d 1b a7 4d bd
       0.029696582 -0.05640431 0.06171841 -0.050208192
0002e0 1c a9 48 3d 75 b5 e3 bb cd b7 4a bc ed 3f 56 bd
       0.0489894 -0.0069491216 -0.012372923 -0.052307058
0002f0 9f ec 89 bd 01 3e 73 bd 05 87 91 bd 61 73 77 bc
       -0.06734585 -0.059385303 -0.07105831 -0.015103192
000300 5d 7a 11 3d f3 4f 83 3d 1c 23 60 3c c6 a7 83 3d
       0.035517085 0.064117335 0.013680246 0.064284846
000310 05 e3 64 bd 2e 03 8b bc 80 ba 08 bd 85 bb 42 3c
       -0.055880565 -0.01696929 -0.033380985 0.011885528
000320 35 46 55 3d 8a b3 24 3d da be 8a 3d c5 25 6c bd
       0.052068908 0.040210284 0.06774683 -0.057653207
000330 5b f3 0c 3d a9 d4 2a bd 7f fb 28 bc e7 3c 44 3d
       0.03441177 -0.041706715 -0.010313868 0.047909644
000340 76 27 6d bd ff 5d 0e 3d 55 63 a3 bd df ad 86 bd
       -0.05789896 0.03475761 -0.079779305 -0.06576132
000350 ad 04 8c 3d 91 f3 90 bd dd 90 77 3d 25 da 45 bd
       0.06836829 -0.070777066 0.060440887 -0.048303742
000360 d6 c6 ce bc 69 2b a3 bd 6e 59 99 bc 07 60 11 3c
       -0.025241297 -0.07967264 -0.018719401 0.008872992
000370 4f 39 01 bd b4 a1 1e 3d 33 fb 3e bd 5b 05 ec 3c
       -0.031548794 0.03872843 -0.04662628 0.028811147
000380 cb 42 2d bd 8d 1c 84 3d 73 b7 5a bc c4 fd 6f 3d
       -0.042300027 0.06450758 -0.013349402 0.05859162
000390 81 d6 a1 bd 16 ad ea 3c 45 69 76 bc 4e 3a 49 bd
       -0.079022415 0.028646987 -0.015039747 -0.04912787
0003a0 4b 94 29 bd 8d c5 58 bd 38 e6 a4 3d a5 fc a8 3d
       -0.04140119 -0.052922774 0.08051723 0.08251313
0003b0 58 10 86 bd 17 27 58 3d c8 76 9d bd 6f bc a8 3d
       -0.06546086 0.052771654 -0.07688671 0.08239066
0003c0 22 fc 2d bd fe 21 97 3c 8b 5a a7 bd b0 2d 82 3d
       -0.04247678 0.018448826 -0.081715666 0.063563704
0003d0 ae e4 48 bd d8 fa 67 bd e4 20 d4 3c 6d 60 e6 bc
       -0.04904621 -0.056635708 0.02589459 -0.028122151
0003e0 c4 36 09 3d 9b 57 34 bd fe f0 11 bd 19 9b 6f 3d
       0.033499494 -0.04402886 -0.03563022 0.058497522
0003f0 ff e7 e7 3b cf 66 27 3d 89 0f 35 3c 88 ad 51 bd
       0.0070772166 0.04086953 0.011051067 -0.051190883

encoder2.sequence.0.block.1.weight f4 [32]
000000 00 00 80 3f 00 00 80 3f 22 ff 7f 3f 00 00 80 3f
       1.0 1.0 0.99998677 1.0
000010 fc fe 7f 3f 00 00 80 3f ff ff 7f 3f f7 ff 7f 3f
       0.9999845 1.0 0.99999994 0.99999946
000020 00 00 80 3f f6 ff 7f 3f 00 00 80 3f ff ff 7f 3f
       1.0 0.9999994 1.0 0.99999994
000030 01 00 80 3f 00 00 80 3f 37 ff 7f 3f 9b ff 7f 3f
       1.0000001 1.0 0.999988 0.999994
000040 ff ff 7f 3f d8 ff 7f 3f fd ff 7f 3f 92 00 80 3f
       0.99999994 0.9999976 0.9999998 1.0000174
000050 00 00 80 3f 00 00 80 3f 03 00 80 3f 00 00 80 3f
       1.0 1.0 1.0000004 1.0
000060 00 00 80 3f fa ff 7f 3f f9 ff 7f 3f 00 00 80 3f
       1.0 0.99999964 0.9999996 1.0
000070 ce ff 7f 3f ff ff 7f 3f 00 00 80 3f 00 00 80 3f
       0.999997 0.99999994 1.0 1.0

encoder2.sequence.0.block.1.bias f4 [32]
000000 e1 3e fb b3 80 a2 a2 b6 23 5c 62 b7 a8 e1 9a 36
       -1.1699536e-07 -4.8468937e-06 -1.3492102e-05 4.6158275e-06
000010 6a ad ad b7 f2 79 b6 b6 8f 3e df 36 77 b5 c3 b6
       -2.070396e-05 -5.438219e-06 6.6532007e-06 -5.832578e-06
000020 11 cb 95 36 a3 78 02 b7 b8 f9 eb b5 97 0e d2 b4
       4.464186e-06 -7.776692e-06 -1.7581542e-06 -3.9126164e-07
000030 71 9f 7c 37 75 69 b3 37 fa 5e 53 b7 6d ef 34 b6
       1.5057493e-05 2.138757e-05 -1.25986935e-05 -2.6961454e-06
000040 98 fb ea 34 61 30 28 b7 74 a7 35 37 00 d6 3d 37
       4.3768955e-07 -1.0024844e-05 1.0827429e-05 1.1315104e-05
000050 69 75 9b 36 07 8b 98 b6 4c b1 48 37 8c d9 0b b7
       4.6330283e-06 -4.546138e-06 1.1962209e-05 -8.335697e-06
000060 43 09 ca b6 e0 33 f2 b5 c6 ef 58 37 00 d9 e2 36
       -6.0211473e-06 -1.8045503e-06 1.293043e-05 6.760587e-06
000070 c3 0f 55 b7 95 8c 6a b5 7e 16 af 36 03 fa a2 36
       -1.2699459e-05 -8.7376367e-07 5.218025e-06 4.8570814e-06

encoder2.sequence.0.block.1.running_mean f4 [32]
000000 af 55 b5 3e ee 4e 04 be d3 49 ac 3e 0e aa 09 be
       0.35416934 -0.12920734 0.33650073 -0.13443777
000010 a3 76 8c be 65 ee f4 bd fd 7c 8f 3d 8f 8d 22 3e
       -0.27434263 -0.11959533 0.070062615 0.15874313
000020 6c 79 ed bb 6d 86 01 bf 2e 45 c2 3e 95 dd c2 be
       -0.0072471406 -0.5059574 0.37943405 -0.3805968
000030 5c da 73 be c8 d8 6d be 18 d0 ed 3e 22 9d 91 3d
       -0.23813766 -0.23227227 0.46447825 0.07110049
000040 4a 36 31 be 1e 41 64 3f 92 57 fc 3d 19 77 32 3e
       -0.17305866 0.8916186 0.1232139 0.17428245
000050 78 18 7a bd 1e 3d d6 3e 12 c8 8c 3e ec d6 92 bd
       -0.06105849 0.41843504 0.27496392 -0.07169899
000060 a1 54 c5 bd d2 c0 23 be 02 c9 20 bd d6 c4 32 3e
       -0.09635282 -0.15991524 -0.039254196 0.174579
000070 f2 e4 b6 bd d2 f4 29 3e 04 b8 2a be fc a6 db 3e
       -0.089303866 0.16597298 -0.16671759 0.42900836

encoder2.sequence.0.block.1.running_var f4 [32]
000000 bb 52 9b 3e 0c c1 03 3e 97 95 99 3e c4 e5 40 3e
       0.30336556 0.1286661 0.2999694 0.18837649
000010 26 48 9e 3e ee 61 4f 3e 23 46 84 3e 58 fe 2f 3e
       0.3091442 0.20252201 0.2583476 0.17186868
000020 f9 19 38 3e 3e 1c b7 3e d4 2d 25 3e f4 b7 1b 3e
       0.17978658 0.35763735 0.16130763 0.15206891
000030 0f d2 1f 3e 48 c4 94 3e f3 1d 49 3f a0 9e db 3d
       0.15607475 0.29056 0.78561324 0.10723615
000040 c9 53 e4 3d 07 96 98 3f 96 54 2d 3e a8 67 28 3e
       0.11148793 1.1920785 0.16926798 0.16445792
000050 66 ac ba 3d de a7 8d 3e b6 30 f3 3e 7e ef c4 3d
       0.09114914 0.27667135 0.474981 0.09615992
000060 ac 82 d0 3d 36 8a ac 3d 3d f9 3e 3e 4a 19 2a 3f
       0.10181174 0.08424799 0.18649764 0.6644484
000070 64 b5 5f 3e 38 97 f9 3d 0e 16 d1 3d ac aa 43 3e
       0.21846539 0.12187046 0.10209285 0.19108075

encoder2.sequence.0.block.3.weight f4 [32, 32, 3, 3]
000000 79 6f 0c bd 3e 7b 18 3c 5b 31 1a 3d a5 23 64 3d
       -0.034285996 0.009306727 0.037644725 0.055698056
000010 bb eb 03 3d 79 52 00 3d a3 3d 34 bd e5 93 6b bd
       0.032207232 0.031328652 -0.044004094 -0.05751409
000020 81 8a 48 bd 45 82 4a 3d c7 3a 61 bd eb 48 6d bd
       -0.048960213 0.04944064 -0.054987695 -0.057930868
000030 51 8e f3 3c 87 52 0e 3c d5 31 eb 3c bf 80 f4 3c
       0.029730948 0.008686668 0.028710285 0.029846547
000040 4c ac c6 bb 39 f7 76 bc 34 fc 5e bd 5a fe fa bc
       -0.00606302 -0.015073591 -0.05443974 -0.030638862
000050 f1 2b 69 3d cb 5b 6a 3b 34 67 4e 3d ed 9a 02 3d
       0.05692667 0.003576028 0.05039139 0.03188603
000060 99 54 b0 3b 7e 8f 11 3d 0d 66 c2 39 bc 84 60 bd
       0.0053811786 0.035537235 0.00037078597 -0.054814085
000070 3d 99 18 3d ed 29 07 bd 7a f7 e9 bb 3b 7c 4e bd
       0.037255514 -0.032998968 -0.007140097 -0.050411444
000080 1b 73 4b 3d e0 9a 09 bd af f1 41 3d 96 5f 8a bc
       0.04967032 -0.033594966 0.047349628 -0.016891282
000090 ec b7 cc b9 77 13 0c 3d 01 a9 23 3d fe b7 04 bc
       -0.00039046945 0.03419825 0.039956097 -0.008100508
0000a0 b6 a3 a7 3c ec f9 28 bd 56 46 cb ba 82 88 c2 bc
       0.020463806 -0.04125397 -0.0015508633 -0.023746733
0000b0 34 5e 48 bc 7a fb aa ba 52 cf 10 3d 58 cf 36 3b
       -0.012229491 -0.0013044917 0.035353966 0.0027894583
0000c0 0d 66 db bb f8 da 5a 3d 36 50 29 bd 58 8d 1d bd
       -0.006695515 0.05343148 -0.04133626 -0.038464874
0000d0 83 fd e7 bc c6 4c 63 bd ef 08 aa bb e4 eb c3 ba
       -0.028319126 -0.05549314 -0.0051890532 -0.001494762
0000e0 d1 1e 48 bd f6 e0 52 3d 80 ad a9 bc 2b 54 37 3d
       -0.048857514 0.05148407 -0.020712614 0.044758003
0000f0 e8 ae 58 3d 27 1c f9 3c 69 48 d4 3c 03 81 da 3b
       0.05290118 0.030408932 0.025913434 0.0066682114
000100 1d 34 9d 3c 43 16 a0 3b 83 87 fc 3c df b1 c6 bb
       0.019189889 0.0048854663 0.030826336 -0.0060636844
000110 cd 61 63 bd 1e 90 13 3c ca 2e 1c 3b 7f 5f 9b 3c
       -0.055513192 0.009006528 0.00238316 0.018966435
000120 a2 ed 0d bd f0 17 76 bc 7a 66 13 bd 03 27 f7 3c
       -0.034650452 -0.015020356 -0.0359864 0.03016997
000130 72 05 90 bc 04 bb 07 bd d4 33 0f 3d f5 b5 6d bc
       -0.017580722 -0.033137336 0.034961537 -0.014508714
000140 57 68 26 3d 20 8f 6c bd 0a 26 4c bd 5f 47 aa bb
       0.04062685 -0.057753682 -0.049840964 -0.0051964964
000150 f3 b9 2d 3d 0b e7 3e 3d 2a 34 34 3d f9 79 66 3c
       0.042413663 0.04660706 0.04399506 0.0140671665
000160 6a c2 a2 bc a0 e8 96 ba eb 88 3a 3c 03 83 0e bd
       -0.019868094 -0.001151342 0.011385183 -0.03479291
000170 cc 79 19 3d 51 2a da bc 81 94 58 3d 09 43 15 3d
       0.03746967 -0.026631506 0.052876 0.036440883
000180 dc b4 02 bd 5e 5f 00 3d 69 4d eb bb 05 76 91 3c
       -0.031910762 0.03134095 -0.007180859 0.017756471
000190 52 34 69 3d c7 03 42 bd 06 cf 26 bd b8 8c 14 bd
       0.056934662 -0.047366884 -0.040724777 -0.036267012
0001a0 85 78 68 3d 84 4d 49 bd 5c a9 94 bc 62 31 d0 3b
       0.05675556 -0.04914619 -0.018147163 0.006353543
0001b0 fb d9 35 bd 38 0d 69 bd b2 c1 59 3d 2c ff 1d 3c
       -0.044397335 -0.056897372 0.053163238 0.009643357
0001c0 c3 54 16 bd 10 2f 2f bd 74 c4 a0 3c c5 28 9e bc
       -0.03670193 -0.04276949 0.019624926 -0.01930655
0001d0 83 7d 24 3a bc 88 09 3d de cc bf bc 9b 4a 72 3c
       0.0006274806 0.033577666 -0.023413118 0.014788295
0001e0 4c b1 3a 3d 73 17 40 bd c7 9c dd 3b 46 40 7d 3c
       0.04557924 -0.046897363 0.006763074 0.0154572185
0001f0 78 24 e2 3b 60 89 48 bd b1 43 5b bd 7e d9 68 3d
       0.00690132 -0.048959136 -0.053531352 0.05684804
000200 55 e5 2f bd b2 bb 6e bd 17 db 48 3d 5e 8c 62 3d
       -0.042943317 -0.05828447 0.049037065 0.055309646
000210 22 3b 29 3d 98 fb ba bc 0d 74 90 3c 56 1d d8 3c
       0.04131616 -0.022825047 0.017633462 0.026381176
000220 3f 0b 36 bd dd e2 08 3c e0 14 88 bc 99 9b fc bc
       -0.04444432 0.00835487 -0.016611516 -0.030835913
000230 24 ec 11 3d a4 cd 67 bd c1 ff 57 bd e9 c5 10 3d
       0.035625592 -0.0565926 -0.05273414 0.03534499
000240 17 ec 56 3d fe 4d 69 3d 1e 25 a0 bc 17 93 6d bd
       0.052471247 0.056959145 -0.019548949 -0.058001604
000250 cf ee 47 bd 49 01 66 bd 75 2a 44 bd 3a 07 3a 3d
       -0.04881173 -0.05615357 -0.047892053 0.045417048
000260 8d 16 9d 3c db 55 fe 3c c4 7d 14 bd cd 6e 05 bd
       0.019175792 0.031046798 -0.036252752 -0.03257637
000270 57 75 2f 3d f5 bc 50 3d ab 5e 94 bc 9c e8 16 3d
       0.042836513 0.050961453 -0.018111547 0.036842927
000280 76 3a ac 3c 20 38 f8 3a 3e d3 69 bd ea 16 f8 3c
       0.02102397 0.0018937625 -0.057086222 0.030284364
000290 66 14 35 3b 0b 1b ce bc 73 a1 5a bd 70 37 90 bc
       0.0027630567 -0.02515938 -0.053376626 -0.01760456
0002a0 99 5b 61 bd 10 2a 35 3c e5 fe 8b 3c 34 89 f1 3c
       -0.055018995 0.011057392 0.017089317 0.029484369
0002b0 4f 6e 56 3d 07 6e 01 bd f1 46 41 bd aa e3 a8 3c
       0.052351292 -0.03159907 -0.047186796 0.020616371
0002c0 e2 7e c0 3b 22 eb de bc 0f b7 54 bd 72 9f e5 3c
       0.0058745006 -0.02721173 -0.05193239 0.028030131
0002d0 6f 4a c9 3c 8b 1a 52 bd f3 c0 b1 3c 9f 32 05 bd
       0.024571626 -0.051294845 0.02169845 -0.03251898
0002e0 8d 30 4c 3d 5b dc 2b 3b 44 3c 08 3d a6 3b dc 3c
       0.04985099 0.0026223871 0.0332606 0.026883911
0002f0 e7 83 39 bd 8f de e7 3c f4 42 4f bc ac 55 01 3c
       -0.045291808 0.028304366 -0.01265024 0.007893961
000300 0e 61 87 3b a3 ca 16 3d 0d 77 4c bb be 35 8c bc
       0.004131443 0.036814343 -0.003119889 -0.01711547
000310 a4 76 3e bc d6 bb 6e 3d 5f 53 d8 3c e9 09 a4 3c
       -0.011624966 0.058284603 0.026406942 0.020024257
000320 0f 39 00 3d e1 2e 53 bd 11 62 e8 3b f0 76 54 3d
       0.031304415 -0.05155838 0.0070917686 0.05187124
000330 5d 03 31 bb 1b 1c 0d bd 87 77 74 3c c1 8c 16 bc
       -0.0027010061 -0.03445063 0.014921076 -0.009188832
000340 36 a6 07 3d aa 8c 97 bc 55 b2 28 3d 44 df 5c bd
       0.033117495 -0.018499691 0.041185696 -0.05392386
000350 34 08 94 bc be 44 fc bc 2c cf 66 bd 30 6b 4d 3d
       -0.018070318 -0.030794498 -0.05634992 0.05015105
000360 e8 5e 42 3d f8 86 0f 3c 0b 4f 6f bd 76 32 f8 3c
       0.04745379 0.008760206 -0.05842499 0.0302975
000370 bc 0c 0a 3d 79 62 4b 3d d6 9b 67 bd f5 27 55 3d
       0.03370355 0.049654458 -0.0565451 0.05204006
000380 63 b7 6a 3d 77 d7 11 3d 07 1a fb bb 54 73 e0 3c
       0.057303797 0.035605874 -0.007663015 0.027398743
000390 20 fe 4c 3d b6 57 6b 3d 89 b5 f5 3a b9 11 91 3c
       0.05004704 0.057456695 0.0018746118 0.017708646
0003a0 0b 39 88 3c dd 4d 28 3c 4e 40 c2 bc 31 c1 e6 bc
       0.016628763 0.01027247 -0.023712303 -0.028168293
0003b0 72 c1 43 3d 0d ac 41 bd 76 9f 59 3c 7f ef b2 3c
       0.047791906 -0.04728322 0.013282647 0.021842716
0003c0 d9 08 1d bb 29 45 59 bd 08 cf 44 3d ac 61 27 3d
       -0.0023961572 -0.053044472 0.048049003 0.04086463
0003d0 07 9e 4b bd ea 56 88 3c 67 00 9c 39 6b ef 93 ba
       -0.049711253 0.016643006 0.00029754938 -0.0011286562
0003e0 4e b1 47 bc c2 ca 86 3c 86 4b 85 3b 7b a3 31 bd
       -0.012188269 0.016454104 0.004067841 -0.043368798
0003f0 cf 5b da bc e4 d1 68 3d 4e 90 c3 3c f4 40 c5 3c
       -0.026655106 0.056840792 0.02387252 0.024078824

encoder2.sequence.0.block.4.weight f4 [32]
000000 f7 ff 7f 3f 00 00 80 3f ff ff 7f 3f 46 ff 7f 3f
       0.99999946 1.0 0.99999994 0.9999889
000010 fe ff 7f 3f 8c ff 7f 3f fb ff 7f 3f 32 00 80 3f
       0.9999999 0.9999931 0.9999997 1.000006
000020 00 00 80 3f fe ff 7f 3f 00 00 80 3f 00 00 80 3f
       1.0 0.9999999 1.0 1.0
000030 08 00 80 3f 00 00 80 3f 1d 00 80 3f 51 01 80 3f
       1.000001 1.0 1.0000035 1.0000402
000040 00 00 80 3f 0c 00 80 3f 06 00 80 3f d2 fd 7f 3f
       1.0 1.0000014 1.0000007 0.99996674
000050 5a fd 7f 3f 06 00 80 3f f8 ff 7f 3f 00 00 80 3f
       0.9999596 1.0000007 0.9999995 1.0
000060 00 00 80 3f c3 fe 7f 3f fb ff 7f 3f d1 ff 7f 3f
       1.0 0.9999811 0.9999997 0.9999972
000070 00 00 80 3f 04 00 80 3f 00 00 80 3f b7 fe 7f 3f
       1.0 1.0000005 1.0 0.9999804

encoder2.sequence.0.block.4.bias f4 [32]
000000 89 26 5a b6 43 d1 17 37 5a 6b 46 b7 d4 58 65 b6
       -3.2506962e-06 9.049024e-06 -1.1826714e-05 -3.4175364e-06
000010 af b5 83 b6 1d e9 1c b6 90 ab f5 b6 a8 ff 3b 37
       -3.925255e-06 -2.3381501e-06 -7.3215415e-06 1.1205593e-05
000020 c5 33 3b 37 a4 9b 99 35 ce 89 bc b6 18 ac ea 36
       1.1158122e-05 1.1444686e-06 -5.618879e-06 6.993778e-06
000030 8e d4 01 37 46 b3 ce 36 38 84 54 37 41 17 00 38
       7.738488e-06 6.1601486e-06 1.2666969e-05 3.0539235e-05
000040 53 32 12 37 2e 94 49 37 e7 da 49 37 c8 01 00 b8
       8.713995e-06 1.2015034e-05 1.2031501e-05 -3.0519237e-05
000050 fb 10 03 b8 1e 63 96 b6 6a ed 5e 36 66 b7 85 b6
       -3.1248648e-05 -4.481887e-06 3.321877e-06 -3.9850593e-06
000060 b4 ec 38 b6 00 f5 dd 36 da 58 a0 b6 60 45 03 b6
       -2.7555916e-06 6.614835e-06 -4.7787153e-06 -1.9560903e-06
000070 ef 0a 82 36 a1 30 24 b5 82 54 83 35 58 a9 59 b7
       3.8755747e-06 -6.1165525e-07 9.784856e-07 -1.2973636e-05

encoder2.sequence.0.block.4.running_mean f4 [32]
000000 e4 74 36 3e 47 5e c9 be f0 d8 2a bd b6 96 a7 3d
       0.17818028 -0.3932974 -0.041710794 0.08183043
000010 76 23 bc bc de 12 45 3d 03 c9 0c bf 40 f3 1c 3e
       -0.022966128 0.048113696 -0.5499422 0.15327168
000020 69 93 48 be ca 66 52 3e b1 f7 26 3d 10 b8 cc bd
       -0.19587483 0.20547023 0.04076356 -0.09996045
000030 99 ff 8d 3a 41 2d b1 be 6d a1 88 3e ee 10 60 3d
       0.001083362 -0.34604838 0.26685658 0.054703645
000040 0e 3a 05 3e ed c4 29 3e ca 1d c2 3e 29 a9 10 3e
       0.13010427 0.16579027 0.37913352 0.1412703
000050 71 20 ab 3d da b9 1f bc 92 46 7c 3e 7d 82 0c bc
       0.08355797 -0.0097489 0.24636295 -0.008576033
000060 43 4e e0 be 48 3a c3 bc c8 76 6a 3e c9 3f 8f bd
       -0.4380971 -0.023831502 0.22896874 -0.06994588
000070 94 e4 23 3e 4c 5c dc bb b2 a9 b2 bc 5c 3a a1 3e
       0.16005164 -0.00672487 -0.021809433 0.31489837

encoder2.sequence.0.block.4.running_var f4 [32]
000000 c4 20 13 3e 09 86 26 3e ac 8f e7 3d fc fd 80 3e
       0.14367968 0.16262068 0.113067 0.25193775
000010 99 ec 52 3e a1 42 24 3e a5 23 c9 3e 9a 39 de 3d
       0.20598067 0.16041042 0.39285007 0.108508304
000020 b3 df d7 3d 60 6a 82 3e ed ac db 3d f7 02 fe 3d
       0.10540714 0.25471783 0.10726342 0.12402909
000030 56 9b 32 3e c1 6a 98 3e f5 93 9d 3e 5b 6c 8f 3d
       0.17442068 0.29768947 0.30776945 0.07003089
000040 42 4c dd 3d 93 98 c5 3d 1d d6 0e 3e 54 c4 38 3e
       0.10805561 0.09648242 0.13948865 0.18043643
000050 4d 70 01 3e 52 31 cf 3d a5 aa 58 3e db ab df 3d
       0.12640496 0.10116829 0.21158846 0.10921451
000060 c6 2f 90 3e 72 b1 12 3e 47 73 9c 3d 46 a3 14 3e
       0.28161448 0.14325503 0.07639175 0.14515409
000070 7d 4e d0 3d af 23 a8 3d f3 a5 cf 3d ea 07 f9 3d
       0.101712205 0.08209931 0.10139074 0.121597126

encoder3.sequence.0.block.0.weight f4 [64, 32, 3, 3]
000000 17 e8 fa bc cb 9f 04 3d 9c ff 06 3d cd eb 9a 3c
       -0.030628247 0.032378953 0.03295861 0.018911267
000010 50 f7 ed 3c a8 34 b5 bc eb 1c 41 bd 55 c6 dd 3c
       0.029048592 -0.022119835 -0.04714672 0.027072111
000020 40 8a 3e 3d 44 0d 31 bc a9 c5 a2 bc b8 32 8e bc
       0.046518564 -0.010806385 -0.019869642 -0.017358169
000030 12 2c 48 3d 21 aa 51 bd a4 2f 68 3c 9f ac 2f bd
       0.048870154 -0.05118764 0.014171515 -0.042889234
000040 b1 99 27 bd 2b 15 81 3b f0 6e f2 bc 77 a7 b4 bc
       -0.040918056 0.003939291 -0.029593915 -0.02205251
000050 10 63 52 3d 56 c9 fb bc b1 5e 0d 3d 0c 97 d9 bc
       0.051364005 -0.030735653 0.034514133 -0.026561283
000060 cd 01 fd bc df a8 89 bc 71 8d cc 3c ca e5 44 3d
       -0.030884648 -0.016804157 0.024969788 0.048070706
000070 b9 dc 22 3d 88 78 2f bd cb cd 0d 3c 70 02 d3 3b
       0.03976128 -0.042839557 0.008655022 0.0064394996
000080 49 dc d1 bc 13 7f 67 3d d8 53 18 3d a9 1d 06 3d
       -0.025617735 0.05651767 0.037189335 0.03274313
000090 63 99 ab 3c 53 24 52 bd ae 10 53 bd d3 d2 54 bc
       0.020947164 -0.051304173 -0.05152958 -0.012989718
0000a0 e4 b6 1a 3d e6 6c 69 bd 4c f9 35 bc 67 d6 fa bb
       0.037772074 -0.05698862 -0.0111068 -0.0076549533
0000b0 c7 31 19 bd a3 3a ec 3c 47 0d 51 bd 5c 52 25 3b
       -0.037400987 0.028836554 -0.051038053 0.0025226092
0000c0 41 96 e1 bc d1 29 6a 3d 8f 4e 8b bc df 0d 3b bd
       -0.027537467 0.057168785 -0.017005233 -0.045667525
0000d0 e4 f1 20 bb c1 5b 00 3d 20 06 aa ba 2b b5 88 bb
       -0.002455824 0.031337503 -0.0012971796 -0.0041719875
0000e0 08 1e f3 3c 14 44 8e 3c 3e ca e6 bc af 9e 01 3d
       0.029677406 0.017366447 -0.028172608 0.031645473
0000f0 6d c8 25 3d 70 31 5e bd 59 32 c2 bc a6 bc 2e 3c
       0.040474344 -0.054246366 -0.023705648 0.0106650945
000100 cc 57 d8 bc 23 00 a6 bc 88 39 18 bc 77 b3 25 bd
       -0.026409052 -0.020263737 -0.00929106 -0.040454354
000110 03 e7 0c 3d ec 63 6a bb 6f 9f 2a 3c b2 cf ea bc
       0.034399997 -0.0035765124 0.0104139885 -0.02866349
000120 f8 bc 4d bd 0a a9 44 3d f5 33 16 3d 3a e5 35 bd
       -0.050229043 0.04801277 0.036670644 -0.04440806
000130 bf 78 3d 3d a0 06 36 3d 47 4b 07 bd bd f9 1b bd
       0.04625773 0.04443991 -0.033030774 -0.038079966
000140 27 f8 6a bd aa 57 69 bc a8 2b 5c bd 23 2a 59 3b
       -0.057365563 -0.014242092 -0.05375257 0.0033136688
000150 56 89 2b 3d 16 fc 33 3d f9 cb 3b bd f8 8f a7 bc
       0.04187902 0.04394158 -0.04584882 -0.020454392
000160 77 89 15 3d 03 26 a2 3c e4 1a 26 3d 00 03 70 3d
       0.03650805 0.019793516 0.04055299 0.05859661
000170 4c 90 6a 3d fe fb 05 3d 24 a5 21 bd 8d 0f 2b 3d
       0.05726652 0.03271102 -0.03946413 0.041762877
000180 48 73 3f 3d 08 07 78 3c ed 6d 70 3d 89 f2 46 bd
       0.0467408 0.015138395 0.058698583 -0.048571143
000190 58 6a 47 bd 5f 18 52 3c 78 c0 cd 3c b2 7e ac bc
       -0.0486854 0.012823193 0.02511619 -0.021056507
0001a0 f7 c8 7c bc 76 9d 19 bd b4 94 23 bd b2 2b 50 3b
       -0.015428773 -0.037503682 -0.039936736 0.0031764326
0001b0 fd fb 7b 3c b8 eb 5e 3d c7 6c 03 bd bd 23 02 bd
       0.015379903 0.054424018 -0.03208616 -0.031772364
0001c0 95 29 4b 3d 4d 32 99 3c 4b c2 43 3d 86 8d 18 bd
       0.049600203 0.018700743 0.047792714 -0.037244342
0001d0 c4 fa 1f bd 94 e6 02 b9 42 d1 81 bc 64 f1 fa 3c
       -0.039057508 -0.00012483663 -0.015846852 0.030632682
0001e0 28 63 92 3c fb b6 d9 bc 26 89 93 3c f6 22 67 bc
       0.017869547 -0.02657651 0.018009733 -0.014107456
0001f0 57 d6 a2 3c f6 6c 45 bd d0 f6 9d bc 00 24 22 3a
       0.019877596 -0.048199616 -0.019282728 0.0006185174
000200 0b 7e ba bc 30 e6 c5 bc 16 f9 0c bd 29 f4 fa bc
       -0.02276518 -0.024157614 -0.034417234 -0.030634003
000210 69 f1 88 3c da 1a 8d bc 15 57 b6 3c 5f 01 ce bc
       0.016716676 -0.017224718 0.02225832 -0.025147138
000220 86 71 0a bd c3 5b c5 3c fc 31 ea 3c a8 53 8e 3c
       -0.03379967 0.024091607 0.028588288 0.017373875
000230 30 58 57 bd b1 1f 67 3d ce d7 16 3d c6 8e 7a bc
       -0.052574337 0.056426708 0.0368269 -0.015292829
000240 c5 e9 98 bc a2 d3 13 3c 84 75 21 bd 18 dc d5 bc
       -0.018666157 0.009022625 -0.039418712 -0.026105925
000250 85 22 5b 3d 5f 39 db ba 6d 89 42 bd 6b 79 e3 3b
       0.053499717 -0.0016725472 -0.04749434 0.0069419644
000260 57 5a 44 3d 00 36 70 bb de 8e e2 3a e1 1a fa bc
       0.047937717 -0.003665328 0.0017285009 -0.030530395
000270 43 90 de 3c 71 11 3e bd e1 49 af 3c f4 a8 2d 3d
       0.027168399 -0.046403352 0.021397533 0.042397454
000280 1c d7 05 ba db 62 87 bc ac 83 ec 3c e3 99 3d 3c
       -0.0005105601 -0.01652663 0.02887138 0.011572334
000290 cc 13 59 bd 03 b9 4a bd 47 5e 48 bd dc 7f ee bc
       -0.052997395 -0.049492847 -0.048918035 -0.029113702
0002a0 17 c3 d8 3c 7a b8 9e 3c a7 24 ad 3c 55 e0 0d 3d
       0.026460214 0.019375075 0.021135641 0.034637768
0002b0 88 0f 32 3a b9 a9 5f 3d 6f 5e 5c bd 77 4d ab 3c
       0.00067924755 0.05460522 -0.053800996 0.020910962
0002c0 2b 75 06 3b 9f 08 6e bd 43 a9 24 3b 06 30 0f 3c
       0.0020516615 -0.05811369 0.0025125302 0.008739477
0002d0 70 b0 1a 3c d4 fa 52 3d 64 4f 0a 3d e0 62 44 3c
       0.00944148 0.05150874 0.03376712 0.011986464
0002e0 fd 20 c4 bc 97 04 97 bb c1 46 38 bd af 7f e0 bb
       -0.023941511 -0.0046087014 -0.04498935 -0.0068511586
0002f0 c8 b2 d1 3c e3 38 04 bd da 9e de bc 23 65 3e bd
       0.025597945 -0.032280814 -0.027175356 -0.04648317
000300 4a 16 09 3d 22 d4 5f bc a9 92 56 38 c9 82 42 bc
       0.033468522 -0.013661416 5.1158164e-05 -0.011872002
000310 a3 dc 45 bd 71 fa b8 3c e2 c5 da bc d8 21 52 bd
       -0.04830612 0.022580357 -0.026705686 -0.051301807
000320 a5 a1 e7 bc be 25 06 bd 99 35 ca bc 41 31 9a bc
       -0.02827532 -0.032750838 -0.02468376 -0.018822314
000330 79 13 19 3d e3 87 83 bb ee db 23 3d 92 04 3d 3d
       0.037372086 -0.0040140017 0.040004663 0.046146937
000340 07 33 0d bd 3c 6f 4d 3d 70 3f 6e 3d 14 3b 23 3d
       -0.03447249 0.05015491 0.058165967 0.039851263
000350 57 d3 bf bc 75 6c fe bc 60 ea 5f bd 7a fd 55 3c
       -0.023416204 -0.031057576 -0.054666877 0.013060922
000360 e6 ab 39 3d 5c ee 60 bd e2 a4 55 3d c1 f9 70 bc
       0.04532995 -0.054914817 0.052159198 -0.0147079835
000370 45 6a 8a 3c d5 30 ea bc b0 11 3b 3c 30 92 25 bd
       0.016896376 -0.028587738 0.011417791 -0.04042262
000380 ba 1c d9 bc 69 ab 28 bd e5 ab 22 3d b1 ff 23 bb
       -0.026502956 -0.041179094 0.039714713 -0.002502423
000390 49 42 c1 bb c4 c4 48 3d 59 03 48 3d 17 29 48 bd
       -0.0058977944 0.049015775 0.048831318 -0.04886731
0003a0 86 b9 ef bc 3b 9b 49 bd 08 a4 80 bc e7 3d 69 bd
       -0.02926327 -0.049220305 -0.015703216 -0.0569438
0003b0 97 0b 4c 3d 05 fe db bc 45 d9 03 bd c8 00 18 3c
       0.04981574 -0.026854524 -0.032189626 0.00927753
0003c0 3c 77 fd 3c 56 b6 e0 bc 6e b7 61 bd ad c3 ce ba
       0.030940644 -0.027430695 -0.055106573 -0.0015774869
0003d0 f2 ff a2 bc 6e 9f 64 bd e5 8e e7 bc 39 0a 49 bd
       -0.019897435 -0.055816106 -0.02826638 -0.049082015
0003e0 fb 32 ac bb 7a b2 af 3c 10 8b ff 3c 9d e2 6d 3d
       -0.005255101 0.021447409 0.03119424 0.058077443
0003f0 73 20 0d 3d e6 82 0e bd 5d 28 c3 3b 29 f1 c7 bb
       0.034454774 -0.034792803 0.0059557394 -0.0061017466

encoder3.sequence.0.block.1.weight f4 [64]
000000 00 00 80 3f 00 00 80 3f 00 00 80 3f 00 00 80 3f
       1.0 1.0 1.0 1.0
000010 00 00 80 3f 00 00 80 3f 00 00 80 3f 00 00 80 3f
       1.0 1.0 1.0 1.0
000020 00 00 80 3f 00 00 80 3f 00 00 80 3f 00 00 80 3f
       1.0 1.0 1.0 1.0
000030 00 00 80 3f 00 00 80 3f 00 00 80 3f 00 00 80 3f
       1.0 1.0 1.0 1.0
000040 00 00 80 3f 00 00 80 3f 00 00 80 3f 00 00 80 3f
       1.0 1.0 1.0 1.0
000050 00 00 80 3f 00 00 80 3f 00 00 80 3f 00 00 80 3f
       1.0 1.0 1.0 1.0
000060 00 00 80 3f 00 00 80 3f 00 00 80 3f 00 00 80 3f
       1.0 1.0 1.0 1.0
000070 00 00 80 3f 00 00 80 3f 00 00 80 3f 00 00 80 3f
       1.0 1.0 1.0 1.0
000080 00 00 80 3f 00 00 80 3f 00 00 80 3f 00 00 80 3f
       1.0 1.0 1.0 1.0
000090 00 00 80 3f 00 00 80 3f 00 00 80 3f 00 00 80 3f
       1.0 1.0 1.0 1.0
0000a0 00 00 80 3f 00 00 80 3f 00 00 80 3f 00 00 80 3f
       1.0 1.0 1.0 1.0
0000b0 00 00 80 3f 00 00 80 3f 00 00 80 3f 00 00 80 3f
       1.0 1.0 1.0 1.0
0000c0 00 00 80 3f 00 00 80 3f 00 00 80 3f 00 00 80 3f
       1.0 1.0 1.0 1.0
0000d0 00 00 80 3f 00 00 80 3f 00 00 80 3f 00 00 80 3f
       1.0 1.0 1.0 1.0
0000e0 00 00 80 3f 00 00 80 3f 00 00 80 3f 00 00 80 3f
       1.0 1.0 1.0 1.0
0000f0 00 00 80 3f 00 00 80 3f 00 00 80 3f 00 00 80 3f
       1.0 1.0 1.0 1.0

encoder3.sequence.0.block.1.bias f4 [64]
000000 6e 36 51 b5 0f 90 e7 35 64 51 93 b3 f6 12 79 b4
       -7.7937773e-07 1.7252768e-06 -6.860026e-08 -2.319683e-07
000010 41 e6 9f 35 2f 9a ac b4 ee 65 b9 b3 19 1b 61 35
       1.1913436e-06 -3.214968e-07 -8.633275e-08 8.3858464e-07
000020 72 a0 d8 b4 7f f1 44 b5 d2 2e b3 b5 0d c6 02 b5
       -4.0349875e-07 -7.3367113e-07 -1.3350166e-06 -4.8716976e-07
000030 11 a6 c4 35 5d 43 59 b5 ab 94 8d 35 fb 74 97 b4
       1.465147e-06 -8.0936826e-07 1.0548587e-06 -2.8211056e-07
000040 87 b2 6b b5 32 bd bd b4 90 23 85 b4 cf e2 83 b5
       -8.7804113e-07 -3.534165e-07 -2.4799056e-07 -9.826271e-07
000050 8e 20 b0 b4 30 73 d9 33 14 cb e5 b5 9b fc 9b 34
       -3.280624e-07 1.01258024e-07 -1.7120933e-06 2.9054794e-07
000060 94 9c 59 b3 93 c7 03 b5 5e c9 a1 35 38 95 02 b5
       -5.0666657e-08 -4.909172e-07 1.205404e-06 -4.8645916e-07
000070 93 57 6c 35 cb 41 10 36 1e 90 95 34 4c 6f 9b b5
       8.804429e-07 2.1495969e-06 2.7858272e-07 -1.1580792e-06
000080 86 00 9c 35 4f b9 fb 34 be d1 eb b4 44 83 1f b5
       1.1623058e-06 4.6887223e-07 -4.3924769e-07 -5.942313e-07
000090 70 0c 16 b5 58 98 44 35 67 28 c2 33 a2 c0 64 b4
       -5.5897453e-07 7.323738e-07 9.041178e-08 -2.1304234e-07
0000a0 06 cd ae 34 93 7d 97 35 64 4f 41 b3 ab e0 50 35
       3.25592e-07 1.1286924e-06 -4.500852e-08 7.7812973e-07
0000b0 b2 aa 4d b4 5f 1a be b5 3e f7 2b 35 ee 98 86 35
       -1.9154211e-07 -1.4163778e-06 6.406225e-07 1.0028286e-06
0000c0 5a 2a 3a 35 1f ed 86 35 f9 d0 1c b4 d6 a8 42 35
       6.935203e-07 1.0052789e-06 -1.4604656e-07 7.251632e-07
0000d0 8a a9 f1 b5 66 85 00 b5 8e d9 4b b5 c7 1f 6b 34
       -1.8005242e-06 -4.7877836e-07 -7.5939977e-07 2.1897641e-07
0000e0 6b 22 20 35 16 2d 40 b5 0f 6d 07 35 f3 ed 0f 35
       5.965473e-07 -7.159118e-07 5.045012e-07 5.3617913e-07
0000f0 08 4f 31 b5 33 1d 93 35 8d ec 14 34 d0 d2 41 b5
       -6.6052644e-07 1.0960852e-06 1.3869631e-07 -7.2204875e-07
