Models/Segnet.pth (torch, 499254 bytes, 61 tensors)

encoder1.sequence.0.block.0.weight f4 [16, 3, 3, 3]
00000000: 7693 0a3e 397b 793d 66a8 23be b2dd 013d
00000010: a83c 0ebe a6fa 2ebd fd6c a7bd 0a77 f2bd
00000020: 0d75 8ebd 17c6 473c 3bb6 a8bd 75c6 2d3d
00000030: 405a 323e 6725 233d a8b9 373e 2131 293e
00000040: e33e 26bd c4c4 f4bd b5ed 2b3e ce0e 1cbe
00000050: b782 85bb dbaf 913d fd04 883d 0a7b 96bc
00000060: 32cc 18bc e787 3cbe f542 a93d 1cf2 3a3c
00000070: 5457 273e ca6f c1bd 701d 2cbe 09e3 2f3e
00000080: eff1 243e 746d f13d 3118 923d 223e 313e
00000090: 1da8 c03d 47c7 1dbe 3e25 bd3d 5d70 4cb8
000000a0: 421b cbbc 8b63 b5bc 0876 26bd c06e 8dbd
000000b0: ed6f bdbc 765b aa3c 5a9c 8abd ba97 d9ba
000000c0: 0f6a e23d 7bd2 8fbd dd57 303e a3ae a23d
000000d0: 6071 20be 05c8 1f3e 3197 26bb 519e c2bc
000000e0: 6410 f73c d70d 9b3d 3bb4 1c3e c6c4 1d3d
000000f0: 3cf5 0c3e 4faf 103d 4db1 643d e820 42be
00000100: 35f7 9e3d 5963 35be 8218 66bd 80f8 a93d
00000110: 80ba e63b 9e3a 143e dc88 873c f0b2 00be
00000120: fa59 19be b8a9 dc3d d890 b4bd 826a 063e
00000130: 7c51 a13d 8921 31be b60c 923d 9345 153e
00000140: 2ae7 513c 9ea8 32bc 2cbf 5fbc c11f ad3d
00000150: 5b70 fb3d 616c cd3d 5462 233e a8a4 06be
00000160: b9ee fbbd 15f9 df3d 79f7 08be 52fe 623d
00000170: e99a 11be 8a8b ed3d da1e bb3c a454 c93d
00000180: 3a89 1d3e 0109 2abe 7e3a 0e3d 5064 3b3d
00000190: 9dfe 343e 77ce 97bd f3f5 21be 8c63 06be
000001a0: eedf 05be 6951 68bc ebcb 6a3d 0887 3dbe
000001b0: 474d 26ba 4f74 263e 36a9 503d 5848 9c3d
000001c0: c8c4 1d3c a32f 31be 97bc 70bc 06ea 00be
000001d0: 1d9c 403c 8743 cabd ee6f 213e 37c1 2dbe
000001e0: e90e 3d3e 0223 2ebe 0f08 94bd 59fb 313e
000001f0: 7385 183e 65e3 dcbc 7352 7db9 6ad1 bdba
00000200: cf58 3fbe 4fd1 a63c 384c 073e 4594 3e3e
00000210: df41 1cbe 4ca7 023e 08ca 363e d16d 2e3c
00000220: 36ba 063e 2c41 d73d 0fd5 0a3e b12c 0abd
00000230: 6634 85bd 65c2 363e 1ead 3cbb fb1a 943d
00000240: 5631 25be 7ee9 f3bd afa7 1a3e cc41 263e
00000250: 2e7d 793d 81a3 8a3d a041 3abe e958 3fbe
00000260: 62de 2fbe 60fb 43be 0bf9 003d eca9 2fbd
00000270: 2976 2ebe f20a cbbd b706 293e 5a9d a8bc
00000280: da57 18be d123 b23c cdcb 8d3d 853b 78bd
00000290: 3fa2 81bd 4974 b63d a66b f63d bfa0 81bd
000002a0: 9849 0cbd a3b7 363e 33a0 423e 8723 dcbd
000002b0: 404a bc3d dfd9 71bd 4d79 18bd 4d8c 213e
000002c0: bb7a 2bbe 65f6 01be 6f08 1dbe 022e 6e3d
000002d0: 5dc7 8abd dd46 943d 308a edbd a12c 13be
000002e0: 73c9 413e dabd dbbd 6243 313e cb64 3c3d
000002f0: 00bc f33d dbee bf3d b339 e93d 57f5 e03d
00000300: 0015 3bbe 3f5d 00bd 6cf2 313e 960f df3d
00000310: 060b 03be d69f 2abe 6641 2abe d0af c03d
00000320: 4430 073e 9b12 023e 2c04 cf3c e1bf ac3d
00000330: bdce 923d c257 3a3e ccd0 583d a0ac a5bd
00000340: 678d 243e 0e1a d13d ea14 edbd 926b 7ebd
00000350: 3dcb c3bd 0613 e33c 9888 00be af1e b43c
00000360: 8583 3dbe 690a f4bd f89d 213e 685d 18be
00000370: cf44 adbd eaf5 123e 92ce 283d 54cf 053e
00000380: 1550 3cbe 76d0 a5bd 071a ecbd d44f 58bd
00000390: 60c5 083e 51f7 6cbd 0faf 26be 4196 1abe
000003a0: 068c 1fbd 6483 0d3e 1f07 8dbd ad0a b4bd
000003b0: c0aa 033e dfab bb3d 0175 913c e454 7b3b
000003c0: 8c6a ebbd 2094 f7bd b3d4 1fbe d5e5 4c3d
000003d0: 15c4 423e 9547 f3bd 1ec0 22be 0ae9 2f3d
000003e0: b80d a23d 47d3 113e eb85 44be 4ea4 73bd
000003f0: 78cb 2abd a66f 2c3e a391 a7bd 556e c93c
0.13532814 0.06090853 -0.15982208 0.031705566 -0.13890326 -0.042719506 -0.08175085 -0.11839111
-0.069559194 0.012193224 -0.08237883 0.04242559 0.1741724 0.03983059 0.17941916 0.16522647
-0.040587317 -0.119515926 0.16789897 -0.15240023 -0.0040744203 0.0711362 0.066415764 -0.018369216
-0.009326028 -0.18411218 0.08264724 0.011410262 0.16341907 -0.0944515 -0.16808105 0.17176451
0.16107915 0.11788455 0.071335204 0.17308858 0.09407065 -0.1540805 0.09235619 -4.8742037e-05
-0.024793271 -0.022142192 -0.040639907 -0.069058895 -0.02312466 0.020795565 -0.06768103 -0.0016601004
0.11055385 -0.07022568 0.17221017 0.079434656 -0.15668249 0.15603645 -0.0025419707 -0.023757132
0.030159183 0.07570999 0.15303127 0.038517736 0.13765424 0.035323437 0.05583315 -0.18957865
0.07761995 -0.1771368 -0.056175716 0.08299351 0.0070412755 0.14475486 0.016544752 -0.12568259
-0.1497573 0.10774559 -0.08816689 0.13126567 0.0787687 -0.17297949 0.07131331 0.14577322
0.012811461 -0.010904459 -0.013656419 0.08453322 0.122772895 0.10030437 0.15955478 -0.13148749
-0.12301392 0.109361805 -0.13375653 0.05541832 -0.1421925 0.115988806 0.02284186 0.09830597
0.15384379 -0.16604997 0.03472375 0.045749962 0.17675252 -0.07412427 -0.15816478 -0.13123912
-0.13073704 -0.014179566 0.057323378 -0.18508542 -0.00063439127 0.16255306 0.050942622 0.07630986
0.009629436 -0.17303328 -0.014693401 -0.12589273 0.01175597 -0.09876161 0.15765354 -0.16968237
0.18462719 -0.17005542 -0.072280996 0.17381038 0.14894657 -0.026963899 -0.00024158675 -0.0014481966
-0.18686222 0.020363478 0.13212669 0.18611248 -0.15259503 0.12759131 0.17850506 0.010646299
0.13156971 0.105104774 0.13557838 -0.033734027 -0.06504135 0.17847593 -0.002878971 0.072317086
-0.16132101 -0.119097695 0.15103029 0.16236037 0.060910396 0.06769467 -0.18189096 -0.1868626
-0.17174676 -0.1913886 0.031487506 -0.04288666 -0.17037262 -0.09914197 0.16506468 -0.020582844
-0.14877263 0.021745594 0.069236375 -0.060603637 -0.06329774 0.089088984 0.12032251 -0.06329488
-0.034249872 0.1784349 0.19006424 -0.10748964 0.091938496 -0.05904567 -0.037225056 0.15776177
-0.16746037 -0.12691648 -0.15335248 0.058149345 -0.06776307 0.072400786 -0.11598623 -0.14372493
0.18924503 -0.10729571 0.17310861 0.04599456 0.119010925 0.0937173 0.113879584 0.10984295
-0.1826973 -0.031338926 0.17377633 0.10891645 -0.12797174 -0.16662535 -0.1662651 0.094085336
0.13202006 0.1270241 0.025270544 0.084350355 0.071683384 0.1819754 0.0529335 -0.08089566
0.16069566 0.10210048 -0.11576255 -0.062114306 -0.09560249 0.027719032 -0.12552106 0.021987287
-0.18507202 -0.11916048 0.15782917 -0.14879382 -0.0846039 0.14351621 0.041212626 0.1306737
-0.18389924 -0.080964014 -0.11528402 -0.052810505 0.13356543 -0.057853047 -0.16277717 -0.1509638
-0.038951896 0.13819653 -0.06886124 -0.08791099 0.12858105 0.09163641 0.017755987 0.003835016
-0.114949316 -0.120887995 -0.15608482 0.050023872 0.19020112 -0.118788876 -0.158936 0.042946853
0.07912773 0.14240752 -0.1919171 -0.059482865 -0.04169795 0.16839465 -0.08182075 0.024588743

encoder1.sequence.0.block.1.weight f4 [16]
00000000: e901 803f 3202 803f ddfb 7f3f eefd 7f3f
00000010: 2d00 803f 6cfc 7f3f 4dfd 7f3f 54ff 7f3f
00000020: 2901 803f 4e01 803f 5d01 803f fb00 803f
00000030: ccfe 7f3f 44fd 7f3f d3fe 7f3f 1a00 803f
1.0000583 1.000067 0.9999369 0.9999684 1.0000054 0.9999454 0.9999588 0.99998975
1.0000354 1.0000398 1.0000416 1.0000299 0.99998164 0.9999583 0.99998206 1.0000031

encoder1.sequence.0.block.1.bias f4 [16]
00000000: f758 5838 aa50 2638 b179 f4b7 7fce 2437
00000010: 912c a3b7 0a18 6ab8 89b3 33b8 8000 ebb7
00000020: 9d87 7d38 d16d 0238 b325 aeb4 6da6 8337
00000030: 35f3 83b7 9b1f dfb4 1ea8 6eb7 8990 aab7
5.1581268e-05 3.965261e-05 -2.9143734e-05 9.82324e-06 -1.9451867e-05 -5.5812336e-05 -4.284413e-05 -2.8014416e-05
6.04462e-05 3.109669e-05 -3.2437455e-07 1.5693915e-05 -1.5729669e-05 -4.1559983e-07 -1.4225048e-05 -2.0332884e-05

encoder1.sequence.0.block.1.running_mean f4 [16]
00000000: dc2d 523e ddf3 8e41 48aa 2941 7636 3fc0
00000010: 897e 3441 27fe 08c1 0196 d040 62e5 4641
00000020: a118 bfc1 9b6d 493f 07e0 b040 4972 3c42
00000030: 748f 75c1 b8c2 4c41 ebc6 08c1 3bcc 8d41
0.20525306 17.869074 10.604073 -2.987699 11.280892 -8.562049 6.518311 12.431002
-23.887026 0.7868287 5.527347 47.111607 -15.347523 12.797539 -8.548564 17.724722

encoder1.sequence.0.block.1.running_var f4 [16]
00000000: 8ffe 8542 a135 0744 8907 8143 c5c9 8842
00000010: 121e 6043 e992 5143 f5e0 0443 e554 a243
00000020: 9df5 5b44 4353 2541 ac0d 2c43 65c3 5645
00000030: 2c04 c243 41f0 a343 633b 0b43 2d47 0344
66.997185 540.83795 258.05887 68.39408 224.11746 209.57387 132.87874 324.66324
879.8377 10.332828 172.0534 3436.2122 388.0326 327.87698 139.23198 525.1121

encoder1.sequence.0.block.3.weight f4 [16, 16, 3, 3]
00000000: 4206 1dbd 45ba 20bd 3c96 3d3d fe40 253d
00000010: 0877 95bc 7cb3 ba3c 03bb 8e3d 872e 573d
00000020: f1bd 91bd 8ba8 a5bd c672 763d a50f 8fbd
00000030: 8916 99bd c448 9f3d 566e e9bc 0df5 623c
00000040: 58f3 9cbd b3f4 92bd 9211 adbc 08c1 69bd
00000050: f363 cebb ae95 94bd 7f91 ee3c 0ba0 493d
00000060: 23e5 e03a 4024 01bb 9dd8 49bc 3cff cdbb
00000070: 7b92 a8bd 8683 81bd 64cc 9ebd f66b ad3c
00000080: 2121 71bd b9df 0c3c ad98 2e3c c789 c4bc
00000090: 4f31 6e3c 1a8e 013d 4de8 ce3b ca2a f7bc
000000a0: 9903 6bbd 19f2 61bd 33db 9c3d 8b70 903d
000000b0: 2ea6 253d 8f15 62bd 9c25 ce3b b7cb ce3c
000000c0: 76b9 b03b 236d 2fbd 7b2b 1abd 2fea 09bc
000000d0: 43ab 1fbd 94ff f13c eab2 df3b 67be 3bbc
000000e0: 3dae fabc 3e71 003d 66b6 59bd f5e6 333d
000000f0: 7d16 84bd 8d99 2bbc 411f 043b a869 36bc
00000100: 2a3a ca3b 1714 96bc 285d 953b 5b30 46bd
00000110: 3386 0e3d e096 3dbd 6ba1 62bc c2dd 703c
00000120: fda1 8e3d 1365 6e3d 62f3 5bbc 5eb8 753c
00000130: 1022 433d 261c 03bd 5d09 8b3d ce85 a1bc
00000140: 808f 15bb 0081 23bc 5f72 d33b ee62 26bd
00000150: b2a7 05bd e1bb 9e3d e0a5 fabc 5eba 9ebc
00000160: a37c 8dbd ec8d 82bc 22e8 903d 351e 713d
00000170: 1c39 80bd 99a5 97bd 88ff 4b3d 33ed 283d
00000180: 11d6 8c3c aae6 9a3c e3ba 41bd b6a5 83bd
00000190: 2a68 07bd 7c06 b33c b7d2 cabc d484 23bd
000001a0: 4dc7 a23b 0491 7b3d 1c7a 983d 535c a4bd
000001b0: 2be6 a23d a374 2e3c 2a19 3cbd 50e0 c7bc
000001c0: d73f 9b3d 14c1 21bd cb07 0c3d 301b 973d
000001d0: 4698 71bc f5c3 303d 29af c53c 6a27 23bc
000001e0: ea9b a0bd 9cd7 8ebd e092 803d cd6b 11bd
000001f0: 6690 533d 7d01 873d ed9f 283d 6218 97bd
00000200: 8083 7dbd 8c5e 61bc 426a 673d c987 a1bc
00000210: 5176 44bd 37dd 9fbd 8241 813a 18fd 833d
00000220: 88a2 863d 5c5c d13c be8f a03d fffe 0b3d
00000230: e9b1 9f3b 4c31 4d3d b06e 063d 7b55 f13b
00000240: b5e5 183d 54e2 76bd b4bb 8e3c f4a7 16bc
00000250: 8c1a 2abd 7745 2bbd b542 7e3d bd8b cebc
00000260: d13a a93d 2c02 963d 701e 093c 7790 82bd
00000270: 9767 6cbb 1860 aabd 9d08 a93d 2ef8 203d
00000280: ca14 44bd 43fb 9bbd 4206 1d3d 0903 a63d
00000290: f8c0 bd3b 986c 13bc 89d5 3ebd 1e3a 8c3c
000002a0: 4f44 143d 9b6f 1cbc 818b 963d 2a9a a5bd
000002b0: ca7f 993d 5265 7dbd e595 80bd 34f7 18bc
000002c0: 0332 9fbd 8c03 803d f128 863d 2675 943d
000002d0: edd3 253d fb4c 3e3d a5bc 093d f6a5 f6bc
000002e0: 084a 86bd 962d 97bd 6cf7 68bd e342 5c39
000002f0: 1e74 8eba 8dc1 13bd f4c8 7abd 295e 6ebd
00000300: d6ae b8bc ab1b 843c 5d3f 8d3d a37d 093d
00000310: 937e 58bd c05a 3bbd 08ba 11bd 56bd a2bd
00000320: 133e 59bd 8b79 253d 2ca8 383d 9b40 993d
00000330: 2755 5dbd ff3c 913d 319f a73d ce5f 373d
00000340: ce2a 093d 0443 3ebc 4d7e 333c 4de3 873c
00000350: addd b9bb ee03 b63b a040 15bd ca78 21bb
00000360: 9e73 6ebd f5f0 4f3d 73bc 0a3d 8b73 a7bd
00000370: 35e6 923c e1ac 4dbd 73cd 5cbd fb91 9ebd
00000380: 03d9 8f3c 7691 45bc 54a7 473d dbf2 4cbd
00000390: 9783 5bbd 8da8 1dbc 903b 833c dbaa 85bd
000003a0: e002 23bb 1466 ff3c cc27 07bc a619 23bc
000003b0: 8eae 983c 865d 64bd 6c5c 89bd b19f cabc
000003c0: c51d 243d b244 a73d 8702 f33c 34d7 d53c
000003d0: 056b 093c 16e0 873c 9579 1c3d 3868 fcbc
000003e0: e183 50bd b735 e0bc 1f69 1fbd 44eb 573d
000003f0: 09b3 323d 154f f23b 9f05 223d 1769 35bc
-0.038336046 -0.03924014 0.046285853 0.040345185 -0.018245235 0.022790663 0.069692634 0.052534606
-0.071163066 -0.08088788 0.06016805 -0.06985406 -0.07475001 0.07777551 -0.028494995 0.01385237
-0.07663602 -0.07175579 -0.021126542 -0.057068855 -0.006298536 -0.07255112 0.029122112 0.049224894
0.0017158132 -0.0019705445 -0.012319711 -0.00628653 -0.08231064 -0.06323914 -0.07753828 0.021169644
-0.058869485 0.0085982615 0.010656518 -0.023991479 0.014538123 0.03162966 0.0063143135 -0.03017177
-0.057376478 -0.055162523 0.076589964 0.07052716 0.040441684 -0.05519634 0.0062911045 0.025243623
0.0053932024 -0.04282869 -0.037639122 -0.00841765 -0.038981687 0.029540814 0.006826748 -0.01145897
-0.030600661 0.031357996 -0.053152464 0.04392143 -0.06449602 -0.010473621 0.002016023 -0.011133589
0.0061714845 -0.018320126 0.004558224 -0.04838596 0.03479595 -0.046286464 -0.01383243 0.014701309
0.069644906 0.05820186 -0.013424726 0.01499757 0.047639906 -0.032009266 0.06788895 -0.019717123
-0.0022821128 -0.009979486 0.006452843 -0.04062169 -0.03263063 0.07750679 -0.030596673 -0.019375976
-0.06908538 -0.015936814 0.07075526 0.0588667 -0.06260893 -0.07404632 0.04980424 0.041241836
0.017191919 0.018908817 -0.04729737 -0.06428091 -0.033058323 0.021853678 -0.02475868 -0.039921597
0.004967606 0.061417595 0.074451655 -0.08025422 0.07954057 0.010647926 -0.045922436 -0.024398953
0.07580536 -0.039490774 0.03418712 0.073782325 -0.0147457775 0.04315563 0.024131374 -0.0099581275
-0.07842238 -0.06974718 0.06278014 -0.035503197 0.05165138 0.06592081 0.041168142 -0.073776975
-0.061892986 -0.013755452 0.05649782 -0.019718068 -0.047964398 -0.07805865 0.0009861442 0.06444758
0.06573969 0.025556736 0.07839917 0.03417873 0.0048735035 0.05009584 0.032820404 0.0073649264
0.03732844 -0.060274437 0.017423488 -0.009195317 -0.041529223 -0.041814294 0.062075336 -0.025213117
0.082631715 0.07324633 0.008369073 -0.06375211 -0.0036072487 -0.0831911 0.08253596 0.039299183
-0.04787139 -0.07616284 0.038336046 0.08106048 0.005790826 -0.008998059 -0.04659036 0.017117556
0.036197957 -0.009548093 0.07350827 -0.08086045 0.07495077 -0.061864205 -0.0627859 -0.009336282
-0.07773211 0.062506765 0.06550778 0.07248907 0.04048531 0.046460133 0.03362717 -0.030108433
-0.06557089 -0.07381742 -0.056876585 0.00021005752 -0.0010868346 -0.036073256 -0.0612268 -0.058195267
-0.022544306 0.016126474 0.06896851 0.033567082 -0.052855086 -0.045740843 -0.035577804 -0.07946269
-0.053037714 0.040399116 0.045082256 0.07483026 -0.054036286 0.07091712 0.0818466 0.0447691
0.033488087 -0.011612657 0.010955405 0.016587878 -0.0056721778 0.0055546677 -0.036438584 -0.0024638646
-0.05821573 0.050766904 0.033871125 -0.08176335 0.017932037 -0.0502137 -0.05390687 -0.07742687
0.017559534 -0.012058606 0.04874356 -0.050036293 -0.05359229 -0.009622705 0.016019613 -0.06526729
-0.002487354 0.031176604 -0.008249234 -0.0099548455 0.018637922 -0.055753253 -0.06707081 -0.02473435
0.040067453 0.081673995 0.029664291 0.026103593 0.008387332 0.016586345 0.038201887 -0.030811414
-0.05090702 -0.027369363 -0.03891861 0.0527146 0.043627772 0.007394681 0.039556142 -0.011072419

encoder1.sequence.0.block.4.weight f4 [16]
00000000: c4f9 7f3f 50fc 7f3f 4bff 7f3f fc03 803f
00000010: e602 803f fafe 7f3f c1ff 7f3f b2ff 7f3f
00000020: 3701 803f 82fe 7f3f e201 803f 05fd 7f3f
00000030: a1fe 7f3f 7700 803f 1dfe 7f3f 8400 803f
0.9999049 0.99994373 0.9999892 1.0001216 1.0000885 0.9999844 0.99999624 0.99999535
1.0000371 0.99997723 1.0000575 0.9999545 0.9999791 1.0000142 0.9999712 1.0000157

encoder1.sequence.0.block.4.bias f4 [16]
00000000: 3cb2 2fb8 57ad 5836 7500 bd36 cecc 8838
00000010: a9e2 e0b5 a3b6 80b7 0ee8 9637 1e27 f136
00000020: 93dc 2437 c12c 61b7 d1d0 dd37 b50b ceb7
00000030: 45c9 4037 7ce6 6b37 1ee6 83b7 3ae7 4bb7
-4.1889245e-05 3.2287405e-06 5.632692e-06 6.523133e-05 -1.6755267e-06 -1.5343836e-05 1.7989452e-05 7.1869135e-06
9.826518e-06 -1.3421465e-05 2.644249e-05 -2.4562565e-05 1.14909535e-05 1.4060755e-05 -1.5723574e-05 -1.21535795e-05

encoder1.sequence.0.block.4.running_mean f4 [16]
00000000: 638b aebd 7f34 903c 34ab 8ebd 12bb bd3c
00000010: 97d7 8e3e 73a7 14bf e17b 21be 06e7 37be
00000020: 62dc 283e 9298 74be 961b a23d 6051 bb38
00000030: 95c9 593d ac83 8f3d a30b 72be 88dc 543e
-0.0852268 0.017603157 -0.06966248 0.023160491 0.27898857 -0.5806801 -0.15769912 -0.17959222
0.1649032 -0.23886326 0.07915418 8.932012e-05 0.05317076 0.07007536 -0.23637252 0.20787251

encoder1.sequence.0.block.4.running_var f4 [16]
00000000: 7ff9 303d 0a80 3b3d f71b e33d 7367 373d
00000010: c34b ed3d aa79 063f d1a0 733d c1ad aa3d
00000020: 5c37 4e3d 99a6 043e e691 093e fe59 e53d
00000030: 59b2 ab3d 6191 ed3d 22ba bd3d 82de a93e
0.043206688 0.045776404 0.11089318 0.04477639 0.11586716 0.52529395 0.05947954 0.08333922
0.050345764 0.12954177 0.13434562 0.11198805 0.083836265 0.115999945 0.09264018 0.33177572

encoder2.sequence.0.block.0.weight f4 [32, 16, 3, 3]
00000000: c187 a3bd 0405 263c 3408 2cbb 747d 59bd
00000010: 3db6 97bd 9187 993d 9843 94bd 19f6 413d
00000020: 0003 f83a 41fc a53d 0961 093d 378a 7abd
00000030: bd20 443d 8780 093d 5eea 3e3d 6fa5 c33c
00000040: 7615 193d d497 3fbd af59 763d ae9c a3bd
00000050: 7922 7f3d d9fc 96bd c310 353d e62d a83c
00000060: 2e19 953d 8ba1 8fbc b5f7 243d b952 1bbd
00000070: afd3 5dbc ee3d 873d 6ace 8cbd 81be 84bd
00000080: e3b2 05bd 9593 c43c 7bdd 3cbd 3a62 a9bd
00000090: 3868 9cbd bcd4 16bc 6e0a 6ebd 2395 80bd
000000a0: df0d 6abc e039 96bd a127 9fbd 9569 0cbd
000000b0: 8d37 1c3d 88b0 71bd fb82 12bc 032f 663d
000000c0: e10e 523d 333b d9bc 93b7 5fbc 3ef2 7bbd
000000d0: fba4 9dbd 51c7 8ebd da32 0abc 6a36 3abd
000000e0: aace 92bd 8351 683d 9853 c23c 7541 123b
000000f0: 5331 89bd 9308 bdbc 65a6 34bc 531c 5c3d
00000100: a226 7f3d 8884 963d e01f 8c3d fb11 8dbd
00000110: 85ee 723d c3fc 84bb 8691 09bd efd9 87bd
00000120: 3620 283d ab01 3cbd ae60 5bbd f58b 133c
00000130: 7f55 03bd bcb3 f2bc 8e08 bb3c 928f 163d
00000140: 41e3 65bd 6438 d23c 19c3 a3bd 4ace b93b
00000150: 1b5f aa3c ec8a 93bd 3060 f7bc 1d96 373d
00000160: 6699 a63d 9811 a03d d7f5 393d 5d0f a2bd
00000170: 6893 a9bd dfb5 e7bc ce92 a0bd 6de5 6cbd
00000180: 0fd3 afbc ef17 7b3d 1325 333b df9c 48bd
00000190: ba95 a23c 25a9 a8bd 5050 8ebd 53cc 273c
000001a0: 6faf 89bc 9ba3 8e3c 295c 963d 476f df3b
000001b0: a0a5 94bc d1f4 00bd fd84 21bc f765 213d
000001c0: e2af 3cbd 8904 8fbd deba 9dbd 6afc a9bc
000001d0: 1685 6dbb 974b f73b b725 403d 8687 8a3c
000001e0: d8d2 383b 9905 7abd 1a5b 18bc c2e4 adbc
000001f0: d9bb 153d aeb4 1e3d afe1 6fbd 27e3 a0bd
00000200: 8202 673d a329 283d 7b77 ac3b be1d 29bd
00000210: 8135 6f3d e4b1 a83d aa21 82bb e8b7 49bd
00000220: eaf1 f73c 7be9 1fbd b8bf 84bd f82d 8e3d
00000230: 9299 a73d 3f41 293d 8220 aa3d ab0f 6ebb
00000240: 875d 7d3d 9b5c aabd 9f2b d03c 5b84 8d3d
00000250: 2529 18ba 34fc 3b3d 3750 743d e978 163c
00000260: 8dbd f93c 4c37 04bd 8db5 f1ba 20b8 47bd
00000270: b9e7 b6bc 67e3 7e3d a4bb 153d 096b b3ba
00000280: 6e82 583d 15e4 0dbd e075 96bd c402 79bd
00000290: e686 6cbd ec5a 20bd 188c 8e3d 97de f23a
000002a0: 3d52 67bd 1dc2 96bd 3178 61bd 12df 003d
000002b0: 0f25 563c a6a7 9fbd 7559 503c d98e a7bd
000002c0: c012 3dbd 8249 8bbd 137c 39bd da7c 893d
000002d0: 3146 213b 9f82 5cbd 4791 9a3d 7949 283d
000002e0: 7cfd 3a3d e6c5 75bd b822 50bd 3cfb 76bd
000002f0: 0501 853d e0c7 ec3c 5092 803d 2046 583d
00000300: fa11 6abd 1e38 263d 085c 013c 838e 073d
00000310: 17d2 8d3d feb8 3d3d e330 2dbd 41bb 67bd
00000320: 9d0a 973a 021b eb3c 3b35 013d 4a12 60bb
00000330: 7cec efbb 8946 c6bc 4e54 3fbd 63fd 47bd
00000340: abd0 8f3d b8d2 823d 6fb9 763d 4c6a 4f3d
00000350: 10d0 6dbc fadb 563d 9222 5c3d bae8 b3bc
00000360: 1aad 56bd d323 99bd d3c3 1bbd 4d5d 963d
00000370: 5894 a43d 0c1b 463d eeef 403c e649 4a3d
00000380: ec21 93bc 9579 823d deb8 47bd 64b5 1d3d
00000390: dfdc e9bc 79a1 503c 61bf 943d b974 3cbd
000003a0: 4979 953d 20bb afbc 4936 113a 811f 29bd
000003b0: f3ed a63d c017 de3b 27a1 373d 5bb1 6abd
000003c0: 05c4 e43c 34b5 85bd 5030 30bd 080b 3cbd
000003d0: 0bce 833c e49d 7a3c cc88 25bd 9c54 0abd
000003e0: b739 5f3d fe7d 86bd 545a 68bd df95 b83c
000003f0: 9ba0 b93c 93ba 5c3c 2f4d 873d 83ed afbc
-0.079848774 0.010133032 -0.0026250007 -0.053098157 -0.07407806 0.0749656 -0.07239455 0.047353838
0.0018921793 0.08104754 0.033539806 -0.06116697 0.047882784 0.03356984 0.04661023 0.023882596
0.037373982 -0.046775654 0.060144123 -0.07988869 0.062288735 -0.073724456 0.04420544 0.020529699
0.07280193 -0.017533084 0.040275294 -0.037920687 -0.013539239 0.06603609 -0.06875308 -0.06481648
-0.032641303 0.023996154 -0.046109658 -0.08270688 -0.07637066 -0.009205993 -0.058115415 -0.062784456
-0.014285534 -0.073352575 -0.077712305 -0.03428038 0.038138915 -0.059006244 -0.008942361 0.056197178
0.05128372 -0.026517486 -0.013654607 -0.061510317 -0.07697483 -0.0697161 -0.0084349755 -0.04546205
-0.07168324 0.05671836 0.023721501 0.0022316847 -0.06698861 -0.023075378 -0.011026 0.05373795
0.062292702 0.07349497 0.06842017 -0.06888195 0.0593095 -0.004058452 -0.033586048 -0.066333644
0.041046344 -0.04590003 -0.053558998 0.009005536 -0.032063957 -0.02962672 0.022831228 0.036758013
-0.05612493 0.025661655 -0.07996196 0.0056703435 0.020797303 -0.072042316 -0.030197233 0.044820894
0.08134727 0.07815856 0.045400467 -0.079130866 -0.08280069 -0.028284965 -0.07840501 -0.057835985
-0.021462945 0.06130212 0.002733533 -0.04897773 0.019846786 -0.08235387 -0.06948912 0.010241586
-0.016807286 0.017411998 0.07341797 0.006818685 -0.018145382 -0.031483475 -0.009858367 0.039403882
-0.046066172 -0.06983287 -0.07701658 -0.020750243 -0.0036242655 0.007546853 0.046910968 0.016910326
0.0028201845 -0.061040495 -0.009299064 -0.021227244 0.0365561 0.03874653 -0.058564838 -0.07855826
0.056398876 0.041055333 0.0052632666 -0.04128813 0.058400635 0.08237055 -0.003971298 -0.049247652
0.03026672 -0.039041024 -0.0648188 0.069423616 0.08183588 0.04132199 0.083069816 -0.0036325257
0.061856773 -0.08318444 0.025411425 0.069100104 -0.0005804471 0.045894817 0.05964681 0.009184101
0.030485893 -0.032279298 -0.0018440947 -0.04875958 -0.02232729 0.062228587 0.0365559 -0.0013688515
0.052858762 -0.034641344 -0.073467016 -0.060793653 -0.057745837 -0.03914921 0.069603145 0.0018529472
-0.056474913 -0.07361243 -0.055046264 0.031462736 0.013070359 -0.07795648 0.012716641 -0.08181543
-0.04616046 -0.0680113 -0.045284342 0.06713267 0.0024608488 -0.053835507 0.07547241 0.041085694
0.045651898 -0.060003184 -0.05081436 -0.06029819 0.06494335 0.028903902 0.06277907 0.05280125
-0.05714605 0.04058086 0.007895477 0.033094894 0.06924837 0.046319 -0.04228295 -0.056575064
0.0011523549 0.028699402 0.031544905 -0.0034190589 -0.0073218923 -0.024203556 -0.04671126 -0.048825633
0.07022222 0.06387848 0.060235437 0.050638482 -0.014514938 0.05245588 0.053743906 -0.021961559
-0.052411176 -0.07477536 -0.03802855 0.073420145 0.08036107 0.048365638 0.011775954 0.04938688
-0.017960511 0.06370846 -0.048760287 0.038503066 -0.028547702 0.012733811 0.07263065 -0.046009753
0.07298524 -0.021451533 0.00055394 -0.04128981 0.08150854 0.0067777336 0.04483142 -0.057298046
0.0279255 -0.065287024 -0.043014824 -0.045908958 0.01608946 0.015296433 -0.040413663 -0.033772096
0.0544984 -0.06567 -0.05672677 0.022532402 0.02265959 0.013472217 0.066065185 -0.02147556

encoder2.sequence.0.block.1.weight f4 [32]
00000000: 0000 803f 0d00 803f 2200 803f ecff 7f3f
00000010: 1600 803f a7ff 7f3f e8ff 7f3f c4ff 7f3f
00000020: baff 7f3f e8ff 7f3f 2700 803f 0200 803f
00000030: 8200 803f e7ff 7f3f fbff 7f3f b2ff 7f3f
00000040: 0600 803f 2100 803f f0ff 7f3f 0800 803f
00000050: 1700 803f 9fff 7f3f aeff 7f3f e700 803f
00000060: aeff 7f3f 5cff 7f3f bbff 7f3f 0000 803f
00000070: 0eff 7f3f 0a00 803f 0f00 803f cbff 7f3f
1.0 1.0000015 1.000004 0.9999988 1.0000026 0.9999947 0.99999857 0.9999964
0.9999958 0.99999857 1.0000046 1.0000002 1.0000155 0.9999985 0.9999997 0.99999535
1.0000007 1.0000039 0.99999905 1.000001 1.0000027 0.9999942 0.9999951 1.0000275
0.9999951 0.9999902 0.9999959 1.0 0.9999856 1.0000012 1.0000018 0.99999684

encoder2.sequence.0.block.1.bias f4 [32]
00000000: 1e07 f935 ac89 a135 4f31 3036 1364 72b6
00000010: b471 4336 9a33 d7b6 d05a dab6 7251 b6b5
00000020: 76b4 71b6 ce03 72b6 9143 5c37 792d bcb4
00000030: a7e7 8936 1622 39b6 d111 0435 4d22 eb35
00000040: 67fb c536 48de 23b6 e99e 7735 b89d a433
00000050: 3de5 a532 b0fd 72b6 aabc ebb6 35c3 3c37
00000060: 97e8 4bb6 e2e5 2eb7 c4c4 35b6 0d21 b336
00000070: cb4e 47b6 9574 5fb6 f6cb 74b5 c64f 5b36
1.8554017e-06 1.2035503e-06 2.6254745e-06 -3.611906e-06 2.9123448e-06 -6.4135065e-06 -6.5074782e-06 -1.358376e-06
-3.601684e-06 -3.6063025e-06 1.3128753e-05 -3.5050815e-07 4.109886e-06 -2.7586989e-06 4.919976e-07 1.7518847e-06
5.9003246e-06 -2.4418277e-06 9.2245915e-07 7.665534e-08 1.9312774e-08 -3.6208476e-06 -7.025509e-06 1.1251123e-05
-3.0384742e-06 -1.0424732e-05 -2.7085634e-06 5.3384633e-06 -2.9699174e-06 -3.329745e-06 -9.1193886e-07 3.2679977e-06

encoder2.sequence.0.block.1.running_mean f4 [32]
00000000: 17ae dbbe 6dd8 fb3d a6b2 183e 1490 8d3d
00000010: ba2e 0ebd 7555 0c3e c61b a5be 54e7 ea3d
00000020: f20b 8fbe aa4f d8be 3cce 3f3f 7041 a23d
00000030: a7aa d5bc 5ee5 bcbc 5490 a23e 2e44 4fbe
00000040: a455 183e baec 113e 57a7 03be 1cc2 a83d
00000050: ca8a 323e da4d ae3e 9377 f73d c569 51bd
00000060: 383e d9bd 7875 1f3f 27b8 583e 99fb c9be
00000070: fe03 7ebe bec4 aabe 3fb2 df3e 4794 cfbe
-0.42906258 0.12297139 0.14911899 0.06912246 -0.03471253 0.13704474 -0.32247752 0.114699036
-0.279388 -0.4224828 0.74924064 0.079226375 -0.02608235 -0.02305859 0.3175074 -0.20240852
0.1487642 0.1425046 -0.12856804 0.082401484 0.17435756 0.3404377 0.12083354 -0.05112626
-0.106075704 0.6228862 0.21163999 -0.39449766 -0.2480621 -0.33353227 0.43690678 -0.40542814

encoder2.sequence.0.block.1.running_var f4 [32]
00000000: fcbe f63e c14e d43d b05f e63d 2ea8 f73d
00000010: d707 543e 685e df3d f9e1 9c3e f0d5 153e
00000020: ceb7 193e 8571 713e 5a64 133f fe48 8b3d
00000030: c7c8 223e fee3 a23e 849c da3d fcfc 993d
00000040: 5610 453e 2e8e 8e3e 3837 ee3d 6c07 003e
00000050: 485c 6b3e c0f2 0a3e 28b2 ca3d bb1f f13d
00000060: 5f22 f23d cb5e c83e 7c26 af3d da21 693e
00000070: ca6a 863e 6f9c c53d 66e7 5d3e 685f 313e
0.48192585 0.103665836 0.1124872 0.120926246 0.20706116 0.109066784 0.30641153 0.14632392
0.15011522 0.2357846 0.57575 0.068010315 0.15896903 0.3181457 0.10674384 0.07518956
0.19244513 0.2784285 0.11631626 0.12502831 0.22984421 0.13569164 0.09897262 0.1177363
0.11822962 0.3913482 0.08552262 0.2276682 0.2625335 0.09648978 0.21670303 0.17321551

encoder2.sequence.0.block.3.weight f4 [32, 32, 3, 3]
00000000: 6bf1 773c 3c22 4b3c 75ab 3b3c 261c c03b
00000010: ca35 3a3d 1137 b23c 4bbe 593c b286 4b3d
00000020: fda5 3fbd 66ec dabc d727 62bd 0b74 50bd
00000030: 3eed 273b 32eb c2bc e7ad 48bd ec2e 903c
00000040: dd14 22bd bc9d 273d b526 233d e957 34bc
00000050: 56d0 62bd d6d3 28bc ef67 4d3d 36b0 5ebc
00000060: 1ae6 df3b 4e9c 97bc a09c 303d 3f50 6a3c
00000070: b6e1 24bd b623 d0bb 3bcf 173d aafe 7dbc
00000080: e51e 8dbc d06e 0f3c 63b1 113d acfa 03bd
00000090: 77e2 083d 7bc7 67bc 189a 2dbd f122 023d
000000a0: 484e 0fbd 8ee7 663d 4951 debc 93dc b3b9
000000b0: 0362 37bd 63e6 4a3d 5789 00bd dadf 063d
000000c0: 855a e7bc acaa 693d ba23 f0bc 78d5 1dbd
000000d0: cfb4 f1bb 30f6 ce3c 52b5 2dbd 8e09 65bb
000000e0: fe30 54bd ef93 1cbd d461 0a3d d1eb 47bd
000000f0: 15ea 1d3d 9254 6837 3adb 993c 58e9 c1bc
00000100: 6b8f ea3c 6240 0d3d 5f61 5cbd ca08 0bbd
00000110: d676 2d3d 4202 883c b24b 453d ead3 633d
00000120: 15c3 4f3d 5e73 62bc 7f56 6abc ab7f 64bd
00000130: 2cc4 f53b 7865 e6bc cae5 03bd 890f dd3c
00000140: c8c5 453c 0d7c d53b b6d2 6d3d 1d1c 6cbc
00000150: 9c05 46bd afaa 57bd 3674 2f3d effd 913c
00000160: 28e0 ee3c d9f8 453d fb0b 6c3d 228c 103d
00000170: d488 3cbd 3812 403d be2b 70bd c25a 2d3d
00000180: 6489 843c 5be1 243b c07d 153d 62c5 693d
00000190: 054a b83c 81df 01bc aa78 143d 8fc2 6e3d
000001a0: 3919 80bb 3e1c 4d3d e175 7a3c 1d46 07bd
000001b0: 1379 26bd 600b 3d3b 6047 f93c b189 39bd
000001c0: e38d a3bc 99a7 6dbd ae70 9abc e8be 1cbd
000001d0: 4a21 563d 1201 4cbd 0ef1 33bd 7011 9ebc
000001e0: 916c 09bb 5f2b f2bc 933a 2d3d 0c83 43bd
000001f0: 724b bd3b be35 ba3b 4df8 0c3d b6e9 19bc
00000200: 0abc b0bc d316 59bd 771a 92ba 4ef9 93ba
00000210: bfd7 c1bb 7351 1f3c 1972 183c 0deb c7bb
00000220: 9a6f ad3c 571b d7ba deeb 393c 0326 103d
00000230: dc47 5d3d fb09 49bd 259c bbbc c2ae 8dbc
00000240: bc18 0c3c 62b7 babc fcb8 23bb df66 6a3d
00000250: f86e b1bc 1d03 c93c 07cf 6a3d 02cc fb3c
00000260: baf4 3b3d 965b 5f3d 3d9f 30bc b081 dc3c
00000270: 53a7 2b3d b173 48bd a96c 57bd 6bec 38bc
00000280: 1fb9 c2bc f7d3 5dbb 484d 91bb 8a92 653d
00000290: 6372 513d f4d7 a83c 1d93 543d cc52 66bd
000002a0: 502f c6bc c168 313c cc27 9a3c 9c84 a23c
000002b0: 4292 373d 516e 943b fd74 25bd 870a 403d
000002c0: 2e85 5d3d b385 663d 3cbd 223d 4e1b 173d
000002d0: 2a55 ef3c 31e4 a63c 145d d53c dbbe 37bd
000002e0: 1424 afbc feb4 8dbc ef4b 503c 1864 debc
000002f0: b8be 29bd ecb9 2a3d 30dc 4e3b a2c9 f23c
00000300: e187 8e3c 9f07 4c3c 7be1 653d 2cd6 123d
00000310: 0814 e03c 02c4 10bd a0cb 0dbd a410 eabc
00000320: ae46 35bd 9893 0cbd bb4d 3a3d 94f9 e8bc
00000330: 7f57 e53c 1c57 4d3d 7f43 113d 04d0 ca3c
00000340: 2e37 c5bc 9e91 7d3c 4f21 023d 88f4 25bd
00000350: e62a d13c 7172 aa3b 6a09 923b 6352 0e3d
00000360: 4d4b 60bc 9e56 debc 3a46 dd3c 737a 7d3c
00000370: b8e9 3ebd e05e 203d 8935 16bd 1e94 233d
00000380: e0c4 38bd 9556 cbbc 9a94 0e3d 33ab 183b
00000390: c71e 9a3c bfb0 9d3c fc06 65bd 486c 4c3d
000003a0: 8bc2 a03c 6fce 3dbd 902f 01bd 708b 4b3d
000003b0: 0681 303c 5f5c 5b3d 59af 68bc 0edc 8f3c
000003c0: f955 18bd 8bba 90ba dbcb 80bc d66e 8cbb
000003d0: a429 29bc c3ac 1ebd 6a01 e5bc 165e a63c
000003e0: 4723 8d3c 1af2 0ab9 854f 88bc 8762 c7bc
000003f0: 2b35 233d 6766 2d3d 81da 033d 3c97 54bc
0.015133242 0.012398299 0.011454453 0.0058627306 0.045461453 0.021754773 0.013289998 0.049689002
-0.046789158 -0.026724052 -0.055213775 -0.050891917 0.0025623585 -0.02379379 -0.04899397 0.0176005
-0.039570678 0.04092191 0.039831836 -0.011007288 -0.055374466 -0.010304412 0.050147947 -0.013591817
0.00683285 -0.01850715 0.04311812 0.014301359 -0.040254317 -0.0063519133 0.037062865 -0.015502611
-0.017226646 0.008754447 0.03556956 -0.03222148 0.0334191 -0.014146681 -0.042383283 0.031771604
-0.034986764 0.05637317 -0.02713837 -0.0003430588 -0.044771206 0.04953612 -0.031380977 0.032928325
-0.028241405 0.05704753 -0.02931391 -0.038533658 -0.0073762904 0.025263876 -0.04240925 -0.0034948322
-0.051804535 -0.038227018 0.033784702 -0.048808876 0.038553316 1.3847968e-05 0.018781293 -0.023670837
0.02863284 0.03448523 -0.053803798 -0.03394393 0.04234966 0.01660264 0.04816789 0.05562202
0.050723154 -0.013821451 -0.014302849 -0.055785816 0.007500192 -0.028124556 -0.032201566 0.026984947
0.0120710805 0.006515032 0.058062278 -0.014411 -0.048345193 -0.05265301 0.042835437 0.01782128
0.02915962 0.048333023 0.057628613 0.03528989 -0.046028927 0.046892375 -0.058635466 0.04232288
0.016178794 0.0025158736 0.036496878 0.057073005 0.022496233 -0.007926823 0.036247887 0.058291014
-0.003909257 0.050075762 0.015286894 -0.03302585 -0.04064281 0.0028845891 0.030429542 -0.04529733
-0.019965118 -0.05802116 -0.018852558 -0.038268 0.05227784 -0.04980571 -0.04393106 -0.019295424
-0.0020969252 -0.029561697 0.04229219 -0.047732398 0.005776816 0.005682676 0.034416486 -0.0093941
-0.021574039 -0.053000282 -0.0011146803 -0.0011289509 -0.0059156115 0.009724009 0.009304547 -0.0061010183
0.02117138 -0.0016411346 0.011347739 0.0351925 0.05402361 -0.049081784 -0.022901604 -0.017295245
0.008550819 -0.022792522 -0.0024982085 0.05722701 -0.02165936 0.024537617 0.057326343 0.030736927
0.045887686 0.054530703 -0.010780153 0.026917309 0.04190762 -0.048938457 -0.05259386 -0.011286835
-0.023769913 -0.0033848265 -0.0044342615 0.056047954 0.05113448 0.020610787 0.05189811 -0.056231305
-0.024192482 0.010828198 0.018817805 0.019838624 0.044817217 0.0045297523 -0.04039477 0.04688504
0.05408209 0.05627985 0.03973125 0.036891274 0.029215414 0.020372482 0.02604536 -0.04485975
-0.021379508 -0.017298218 0.0127134165 -0.027147338 -0.04144165 0.041681215 0.0031564347 0.029637162
0.017398776 0.012452989 0.056123238 0.03584878 0.027353302 -0.035343178 -0.03461802 -0.028572388
-0.04425686 -0.034320444 0.045484286 -0.02843932 0.027995823 0.050131902 0.03546476 0.024757393
-0.024074163 0.015476612 0.031770047 -0.040516406 0.02553315 0.0052016308 0.0044566886 0.03474654
-0.013689828 -0.027140912 0.027011026 0.015471089 -0.04660961 0.03915298 -0.03667215 0.039936177
-0.04510963 -0.024821559 0.034809686 0.0023295402 0.018813504 0.019249318 -0.055914864 0.049907953
0.019624015 -0.04633945 -0.0315395 0.049693525 0.010772949 0.05355489 -0.014201962 0.017560985
-0.037191365 -0.0011041922 -0.015722206 -0.0042856736 -0.010324869 -0.038738977 -0.027954776 0.020308536
0.017228736 -0.00013250895 -0.01663948 -0.024338974 0.039845627 0.042333987 0.032190803 -0.01297551

encoder2.sequence.0.block.4.weight f4 [32]
00000000: 0500 803f 0400 803f edff 7f3f 1c01 803f
00000010: e5ff 7f3f dafd 7f3f 0000 803f a3ff 7f3f
00000020: c1ff 7f3f 1100 803f f6ff 7f3f 8400 803f
00000030: 4200 803f 0100 803f 0300 803f fdff 7f3f
00000040: 3bff 7f3f 0000 803f 4000 803f 0100 803f
00000050: 0200 803f 1eff 7f3f 0200 803f fdff 7f3f
00000060: f2ff 7f3f 0900 803f 0100 803f 0900 803f
00000070: d6ff 7f3f 3000 803f 4000 803f 5cff 7f3f
1.0000006 1.0000005 0.99999887 1.0000339 0.9999984 0.9999672 1.0 0.99999446
0.99999624 1.000002 0.9999994 1.0000157 1.0000079 1.0000001 1.0000004 0.9999998
0.99998826 1.0 1.0000076 1.0000001 1.0000002 0.9999865 1.0000002 0.9999998
0.99999917 1.0000011 1.0000001 1.0000011 0.9999975 1.0000057 1.0000076 0.9999902

encoder2.sequence.0.block.4.bias f4 [32]
00000000: 49fa 90b5 63c9 dfb6 d5df 8334 9d25 3a37
00000010: 190d dbb5 9893 06b7 bdb6 be35 c0ff e0b6
00000020: 866d 63b6 4636 ab36 65ff eb35 bc21 e0b3
00000030: 3731 7b36 be6b 10b6 1c76 bb35 cc95 d034
00000040: d65e 7db6 e58a aab5 4e3f 8536 b394 17b6
00000050: b1bb 1936 90a8 ebb6 ab3e 93b6 2d2e c436
00000060: 64b4 ecb6 204e 8236 27f8 b036 8eb9 32b2
00000070: a466 7036 c5f1 fcb5 019a 7b35 0f6c 2db6
-1.0801679e-06 -6.6693624e-06 2.456351e-07 1.1095221e-05 -1.6320583e-06 -8.021387e-06 1.4209287e-06 -6.7054934e-06
-3.3889387e-06 5.1025154e-06 1.7583194e-06 -1.0436949e-07 3.7430561e-06 -2.1520386e-06 1.396696e-06 3.885201e-07
-3.775514e-06 -1.2706411e-06 3.9710785e-06 -2.2587308e-06 2.2908027e-06 -7.023169e-06 -4.388237e-06 5.8466308e-06
-7.0543483e-06 3.883397e-06 5.2740975e-06 -1.0403154e-08 3.5822532e-06 -1.8845827e-06 9.372889e-07 -2.5841907e-06

encoder2.sequence.0.block.4.running_mean f4 [32]
00000000: ce84 513e 89e1 0cbe 6a20 b03d 534f 043d
00000010: 2a78 99be 4d71 94bc 1e5a 6dbd 162a b83d
00000020: d98c ac3d f047 6d3d 7118 38bd a162 b0bd
00000030: 98c8 363d 4a19 45be 705c d23e fe58 833d
00000040: d9c3 433d 732a 2abe ace1 733e e35d 2abd
00000050: d61b e93d 8c20 433e c13f adbd 19cc 6b3e
00000060: 29e0 273e 29bd 6c3e 0b17 b1bd 83b1 15bd
00000070: 0387 e0bb 7d78 8cbd f2eb 313e 057a 9e3e
0.20460817 -0.1375791 0.085999325 0.032302212 -0.2997449 -0.018120432 -0.05794727 0.08992402
0.08425302 0.057929933 -0.044945184 -0.08612562 0.044624895 -0.19247928 0.4108615 0.06413458
0.047794197 -0.16617756 0.23816556 -0.041593444 0.113822624 0.19055384 -0.08459426 0.23027076
0.16394104 0.23119034 -0.08646973 -0.03654624 -0.006852032 -0.06858919 0.17375162 0.3095247

encoder2.sequence.0.block.4.running_var f4 [32]
00000000: a70e 133e d04c c23d fb70 e43d 8cd9 2f3e
00000010: 9663 8e3e 5a1b 143e 7204 e43d d010 a33d
00000020: 256e 0e3e 7155 e43d 54ea a93d c055 043e
00000030: 82d6 0a3e ae0e ad3d 4733 4f3e 585e d43d
00000040: c130 db3d bb59 be3d 4a01 f63d 465c d73d
00000050: dafa 9f3d b56b cf3d 3035 d13d 3858 9f3d
00000060: bad2 a33d 6e3b 5c3e 5a1a c13d 87cc 713d
00000070: cdbb d33d 12cc b13d f91b ba3d 07b7 373e
0.14361058 0.09487307 0.11154362 0.17172831 0.27810353 0.14463559 0.111336604 0.07962191
0.13909204 0.11149109 0.08296648 0.12923336 0.1355839 0.084500656 0.20234405 0.10369557
0.107026584 0.092944585 0.120119646 0.10515647 0.07811518 0.10127965 0.10215223 0.07780498
0.07999177 0.21507046 0.09428854 0.059032943 0.103385545 0.086815014 0.090873666 0.17940913

encoder3.sequence.0.block.0.weight f4 [64, 32, 3, 3]
00000000: 61e3 5e3d 6e71 d5bc cbf5 053c 87ea 1f3c
00000010: cf0b 9ebc a045 6f3d 217c eebc c358 a53c
00000020: a341 94bc b1e4 b8bc 0684 e0bc d4ba 69bd
00000030: 6b4d 563d 656e 033d 37a8 82bc da48 093c
00000040: 6ec8 183c 19af 213d f111 79bb 2e76 7bbc
00000050: d46e 993c 1f68 6bbd 23e0 6c3d f84b 32bd
00000060: 4820 ddbb bb5e 273d 566f 653d b6a8 833c
00000070: 8aaf 123d 8c01 3d3c e1ba 153d 6d3e d1bc
00000080: 0125 25bd 129a 3bbd d9c4 91bc 310c 3ebd
00000090: 483e 20bd b8ba ffbc 03cb d8bb dbe5 7e3b
000000a0: 26c7 503d 3908 56bc 7633 983c b7dc ec3c
000000b0: ee35 5d3d 5228 aabb f037 683d d0dd a73c
000000c0: e946 363c 1b0e ac3c a47a d4bc 5b44 d2bc
000000d0: 89c1 fcba 131a 8e3c bbe0 f63c fa6c f9bc
000000e0: e0f5 31bd 77fd 8c3b 0f91 24bd ff29 5bbd
000000f0: 57a8 c9bc aa54 473c fb6f 58bd 3dc2 eabc
00000100: 7bca 423d c7c3 eb3c 6b2b 61bd 5ae8 46bc
00000110: 5182 a4bb ee9d 623c 487e bf3c c724 99bc
00000120: 1b27 bc3c a575 66bd 58d5 16bd f732 1cba
00000130: fdff ba3c 42cf 4abb 7553 f43c a80e 1a3b
00000140: 3550 50bc ea11 f73c ee24 2fbd 895e e8bc
00000150: e2ee 453c 7971 ecbb fbde 69bd 2592 4c3d
00000160: 4189 bebb 7366 3a3d 7534 48bd c4f6 a7bc
00000170: 9034 863b f2ca 493d ee89 003d f85e 3fbd
00000180: 2de4 3b3c cf63 2b3d 7ce5 53bc e753 3cbd
00000190: 12b5 f73b 6c81 22bd 50dd 693d 5196 363c
000001a0: 9b47 b03c 1fe4 053c 7c4c 04bb 8e2a 20bc
000001b0: 360e 813c ba03 2d3b ea98 c63c c5f4 3c3d
000001c0: e672 54bd 275c b93a 57e7 1f3d 2fff 28bd
000001d0: 6456 3dbd 500d ed3b df97 05bc 7153 303c
000001e0: 5345 6b3d 0995 8b3c 3f9c 64bd 2420 593d
000001f0: 11ce 083d bdff 57bc 9ade 0dbd ad27 6fbd
00000200: c9b0 ee3c 2dd8 1b3b 3a41 40bd 51cd fabc
00000210: 0111 4d3c e425 36bc e0a7 9ebc 62cd 24bc
00000220: e33f 3d3c 9042 653c 7ab0 efbc fcb9 69bd
00000230: aea7 5bba 3ae7 103a bb85 60bd f22b d5bc
00000240: c583 53bc b303 153d 065a 05bd f83c ffbc
00000250: b10d e6bc c907 13bc 54be 60bd 8885 333d
00000260: b19e 19bd 688f 0dbd 5390 fe3b 1caa 11bd
00000270: e74e 5ebd 63a2 393d a5bb dbbc 70a3 c93a
00000280: 44f3 47bd 6ff5 34bd 69f4 97bc 9cff 46bd
00000290: e769 d43c f798 5d3d 900c 1bbb 4cc8 17bd
000002a0: da9d 703d 414d 1c3d 10e8 12bd 947f 6cbd
000002b0: 4870 12bc 1935 a93c 839f 3d3d d026 5b3d
000002c0: 2215 2d3c ec04 1dbc d137 1dbd 7f66 3bbd
000002d0: 3077 db3b efc6 02bd 5eb5 973b 8af2 183d
000002e0: 7b4f dcbc e1c3 2f3d f10e 0ebd d6cb 11bd
000002f0: 3ca4 1f3d 5fe0 0a3d dfb9 a13c 8903 5a3d
00000300: ab33 aabc d02c 8c3b e416 39bc f2ce 86bc
00000310: a474 8339 d05c 4bbd 4c5a a2bc 7840 ee3b
00000320: cf9e 33bd e830 1a3d 06c1 6fbd b49d bdbc
00000330: 0773 0d3c 4c77 5ebc 284d 2e3d cec0 1cbd
00000340: 16d8 493d f1dc 21bd c838 f83b 9bd2 47bc
00000350: db44 ccbc 2ca5 873c fa97 2a3c f1d5 1b3d
00000360: dff3 9c3c 2669 2c3c 7493 c5bb 0211 d2bc
00000370: 3bf3 39bd 1865 913b 4bc9 143d c517 263c
00000380: 8076 ae3c 20d8 f33b cb46 203b e778 063d
00000390: 7f4a fabc fc47 c53c 98b4 c739 b530 e03b
000003a0: c421 8bbc 2aef 05bd 3c18 433d 04dc 6c3d
000003b0: 4010 45bd a69a 663d 7202 0fbc f698 d63c
000003c0: c22d 593d e92e 61bd fd19 323d c848 0a3d
000003d0: daa5 283d d95b 63bd 8fc6 c7bc ef14 273c
000003e0: 9274 db3c f682 dfbb d79a 1f3d da46 9cbc
000003f0: 031c 30bd 4ac2 c33c bcf2 2fbc e696 45bd
0.054416064 -0.026055064 0.008176277 0.0097605055 -0.01929274 0.05841601 -0.029111924 0.020183926
-0.018097704 -0.022569986 -0.027406704 -0.05706294 0.052319925 0.032087702 -0.015949352 0.008379186
0.00932513 0.039473627 -0.0038005079 -0.015348 0.018729605 -0.057472344 0.05783094 -0.04352948
-0.006748233 0.040861826 0.05601438 0.016071659 0.03581194 0.011536013 0.036555175 -0.025542462
-0.040318493 -0.04580123 -0.01779406 -0.046398345 -0.039121896 -0.031216964 -0.0066159978 0.0038894329
0.050971173 -0.013063484 0.018579226 0.028913839 0.05400651 -0.005192795 0.05669397 0.02049151
0.011125305 0.02100282 -0.025937386 -0.02566736 -0.0019283752 0.017346418 0.030136457 -0.030447472
-0.043447375 0.0043026763 -0.0401774 -0.053506847 -0.024616404 0.012166182 -0.052841168 -0.028657073
0.04755638 0.028779877 -0.054973047 -0.012140358 -0.0050204177 0.013831599 0.023375645 -0.018694295
0.022967866 -0.05626454 -0.036824554 -0.0005958522 0.022827143 -0.003094629 0.029824952 0.002350727
-0.012714435 0.03015991 -0.04275983 -0.02836539 0.01208088 -0.0072156754 -0.057097416 0.04994406
-0.005814702 0.04550786 -0.048878152 -0.02050341 0.0040956214 0.04926581 0.03138154 -0.04672143
0.011467976 0.04184323 -0.012933131 -0.045978453 0.007559427 -0.039674208 0.057095826 0.011144237
0.02151852 0.008172064 -0.002018719 -0.009775771 0.015753847 0.0026399926 0.024242837 0.046131868
-0.05186739 0.0014141843 0.039038982 -0.041258987 -0.046224967 0.007234253 -0.008153885 0.0107620815
0.05743916 0.017038839 -0.05581307 0.053009167 0.033399645 -0.013183531 -0.034636118 -0.058387447
0.029137032 0.0023779974 -0.046937205 -0.03061548 0.012516261 -0.011117432 -0.019367158 -0.010058733
0.011550876 0.0139929205 -0.029258955 -0.057062134 -0.0008379173 0.00055276195 -0.054815035 -0.026021931
-0.012909834 0.03638048 -0.032556556 -0.031157002 -0.0280827 -0.008974024 -0.05486901 0.043828517
-0.037504856 -0.03456059 0.0077686696 -0.03556262 -0.054274466 0.04532088 -0.026822874 0.0015383791
-0.04881598 -0.044179376 -0.018549161 -0.04858361 0.025929404 0.054100957 -0.002365861 -0.037056252
0.05874429 0.038159613 -0.035865843 -0.057738855 -0.008937903 0.020655202 0.0462947 0.05350381
0.0105641205 -0.009583693 -0.03838331 -0.045752045 0.006697558 -0.031928 0.004629775 0.03734068
-0.026893368 0.042911414 -0.034682218 -0.035594784 0.038974985 0.033905383 0.01974195 0.053226028
-0.02077659 0.004277803 -0.011296961 -0.016456101 0.0002507317 -0.04964906 -0.019818448 0.007270869
-0.043852624 0.037644297 -0.05853369 -0.023146488 0.008633382 -0.013578247 0.04255405 -0.03826981
0.04927834 -0.039517347 0.007575128 -0.012196208 -0.024935177 0.016558252 0.010412211 0.038045827
0.019159256 0.010523116 -0.0060295407 -0.025642876 -0.04539798 0.0044371 0.03632478 0.010137503
0.02129674 0.0074415356 0.0024456258 0.032830145 -0.0305531 0.024082176 0.0003809079 0.006841744
-0.016983874 -0.032698788 0.047630534 0.05782701 -0.0481112 0.056299828 -0.00872861 0.026195984
0.053022154 -0.054976378 0.043481816 0.033760816 0.041173793 -0.055507515 -0.024386672 0.010197862
0.026788983 -0.0068210317 0.038966026 -0.019076753 -0.042995464 0.023896355 -0.010739025 -0.04823961

encoder3.sequence.0.block.1.weight f4 [64]
00000000: 0000 803f 0000 803f 0000 803f 0000 803f
00000010: 0000 803f 0000 803f 0000 803f 0000 803f
00000020: 0000 803f 0000 803f 0000 803f 0000 803f
00000030: 0000 803f 0000 803f 0000 803f 0000 803f
00000040: 0000 803f 0000 803f 0000 803f 0000 803f
00000050: 0000 803f 0000 803f 0000 803f 0000 803f
00000060: 0000 803f 0000 803f 0000 803f 0000 803f
00000070: 0000 803f 0000 803f 0000 803f 0000 803f
00000080: 0000 803f 0000 803f 0000 803f 0000 803f
00000090: 0000 803f feff 7f3f 0000 803f 0000 803f
000000a0: 0000 803f 0000 803f 0000 803f 0000 803f
000000b0: feff 7f3f ffff 7f3f 0000 803f 0000 803f
000000c0: 0000 803f 0000 803f 0000 803f 0000 803f
000000d0: 0000 803f 0000 803f 0000 803f 0000 803f
000000e0: 0000 803f 0200 803f 0000 803f 0000 803f
000000f0: 0000 803f 0000 803f 0000 803f 0000 803f
1.0 1.0 1.0 1.0 1.0 1.0 1.0 1.0
1.0 1.0 1.0 1.0 1.0 1.0 1.0 1.0
1.0 1.0 1.0 1.0 1.0 1.0 1.0 1.0
1.0 1.0 1.0 1.0 1.0 1.0 1.0 1.0
1.0 1.0 1.0 1.0 1.0 0.9999999 1.0 1.0
1.0 1.0 1.0 1.0 0.9999999 0.99999994 1.0 1.0
1.0 1.0 1.0 1.0 1.0 1.0 1.0 1.0
1.0 1.0000002 1.0 1.0 1.0 1.0 1.0 1.0

encoder3.sequence.0.block.1.bias f4 [64]
00000000: 5c71 d533 ba7d 90b3 87c9 84b4 b1ef 98b4
00000010: 19b7 eab4 793a 0cb4 05e2 dfb3 3103 22b5
00000020: b5ca c633 d565 8734 311e 0433 5c90 f9b4
00000030: 1f17 23b5 ee17 9cb3 056f 4633 aa98 4435
00000040: 5328 8b33 8f2b d2b4 b721 4735 9f4d ee33
00000050: 9ba6 9cb4 83e1 3a35 cfac 8eb5 a4f9 ccb4
00000060: 4373 1f35 6b17 13b5 e178 0435 edf6 eb34
00000070: f126 2fb4 2e39 c733 9d18 1735 a191 a534
00000080: dcde c734 af1d fcb1 cefe 0cb5 fdbd 5034
00000090: 85d4 79b5 c26b b2b5 afe1 8932 78b6 6234
000000a0: 39a6 9634 da48 97b4 e4b6 9234 e810 8434
000000b0: a028 95b5 12e2 3db5 dafe cf33 3f23 52b4
000000c0: 29a3 3033 61d9 5635 f4ff 22b4 155d 3fb5
000000d0: 9089 1334 70ad 02b4 7151 bbb4 9930 2235
000000e0: 3948 0ab5 0bec 1135 9e8c 3334 f81c 39b4
000000f0: 063c d6b4 3d13 d334 c2e7 83b5 fe5b 4c35
9.9392054e-08 -6.728392e-08 -2.4733546e-07 -2.8486605e-07 -4.3719118e-07 -1.3059788e-07 -1.04253594e-07 -6.0354347e-07
9.256966e-08 2.5219802e-07 3.0761104e-08 -4.64849e-07 -6.075588e-07 -7.268669e-08 4.620144e-08 7.3237845e-07
6.480027e-08 -3.914724e-07 7.418234e-07 1.1096858e-07 -2.9178486e-07 6.961856e-07 -1.0630118e-06 -3.8179599e-07
5.9399844e-07 -5.4795845e-07 4.9349734e-07 4.3951823e-07 -1.6312312e-07 9.2770605e-08 5.62877e-07 3.0839604e-07
3.722879e-07 -7.33754e-09 -5.2524854e-07 1.9440627e-07 -9.3068985e-07 -1.3293395e-06 1.6051528e-08 2.1114272e-07
2.806062e-07 -2.8178948e-07 2.732769e-07 2.4599217e-07 -1.1113189e-06 -7.073696e-07 9.685546e-08 -1.9570597e-07
4.1126587e-08 8.003754e-07 -1.5180541e-07 -7.1288497e-07 1.3740487e-07 -1.217029e-07 -3.489072e-07 6.042042e-07
-5.1514104e-07 5.4360197e-07 1.672183e-07 -1.7240006e-07 -3.990428e-07 3.931581e-07 -9.827711e-07 7.612979e-07

encoder3.sequence.0.block.1.running_mean f4 [64]
00000000: 1603 72be 213f 933e fccb 0cbd 6d99 c0bc
00000010: f9e2 933e 7976 9abe a4d2 5abe 3e95 d83e
00000020: 1c32 743e d05c 5bbe d29b 233e 9792 003f
00000030: f2fb c53e e424 023e 06e0 b03c 9f80 88bd
00000040: 686f 25bf e3a7 b8be fce7 563e 692e 4fbe
00000050: a2f6 c23e 30f5 34be c1f6 183e d334 173f
00000060: 1a32 85be a301 463d 293e a93e 284c 693e
00000070: b367 8ebe 398c 623e 9c58 eabe 2071 fbbd
00000080: 7f5e 22bf 1e27 08bf 087e 07bf 3fc1 ab3e
00000090: 07ea 553e de34 a83e 78a1 b23e d5b3 ac3d
000000a0: 0e57 293e 3ea0 38bc d93c ebbe 019e d33e
000000b0: 7b7d 87bc 6b60 b63e 9d3a 99be 108b dfbe
000000c0: 71df 1a3e b923 e43e e4d4 e1bd 9359 c73d
000000d0: 4eac 21bf df01 89be 2830 a33d 314a 3a3d
000000e0: 9c30 823d f17e 7c3e 7115 983f 7dad 2ebf
000000f0: f191 b7be 8407 cd3e 367f 5fbe d5f8 25bf
-0.2363399 0.287591 -0.034374222 -0.02351066 0.28884104 -0.30168512 -0.21369416 0.42301363
0.2384724 -0.21422124 0.1597741 0.5022368 0.38668782 0.12709385 0.021591198 -0.066651575
-0.6462312 -0.36065587 0.20986933 -0.20232548 0.3807879 -0.17671657 0.14937879 0.5906498
-0.26014787 0.048341405 0.33055237 0.22782958 -0.2781349 0.22123803 -0.4577073 -0.12277436
-0.6342544 -0.5318469 -0.52926683 0.33545873 0.20890056 0.32852834 0.34888816 0.08432738
0.16537115 -0.011268673 -0.4594486 0.41331485 -0.016539326 0.35620436 -0.2992753 -0.43660784
0.15124299 0.44558504 -0.11026934 0.09733882 -0.6315354 -0.2675924 0.079681695 0.04548091
0.06356928 0.246578 1.1881543 -0.6823347 -0.35853532 0.40044796 -0.21825871 -0.6483281

encoder3.sequence.0.block.1.running_var f4 [64]
00000000: 2cf4 323e eea0 5f3e cc39 bf3d 4911 2b3e
00000010: 064e 893e 3e36 1b3e c23b 283e a5ba a63e
00000020: 2a38 0d3e 7f64 823e c8ac 1e3e fda5 b33e
00000030: 8489 f43e ac57 493e 8f10 613e 4fbe 663e
00000040: 2778 a23e 573c 813e e195 543e 2433 9a3e
00000050: 0d17 d03e ff2a 383e 7309 493e 62fa 9c3e
00000060: 591f 893e 0e71 923e 9d3c cc3e 3d63 493e
00000070: 541d 573e 0c53 6a3e 4fc7 fa3e 29ca 153e
00000080: 09f2 263f b1d7 c33e a014 e13e 2a42 ab3e
00000090: 605f 953e 3c87 cc3e 0143 b33e 9f1d 4d3e
000000a0: 3301 893e e55e 263e ea9d 153f 876b 063f
000000b0: 4f45 533e 32b5 c63e 5a0b 833e 2d1f d93e
000000c0: 4b9e 023e 29d4 c03e a3b6 3a3e 0eb2 0d3e
000000d0: 0206 4a3f efb9 973e 0bb5 813e be02 2a3e
000000e0: aed0 2e3e b1f8 5a3e 0744 2640 1a23 8f3f
000000f0: 229a 1f3f 8cf4 883e 147c 443e 2256 443f
0.17475957 0.21838734 0.09337196 0.16705813 0.2681734 0.1515741 0.16429046 0.32564273
0.13790956 0.25467297 0.15495598 0.35087577 0.47761166 0.1966235 0.21978973 0.22533534
0.31732294 0.25241348 0.207603 0.30117142 0.40642586 0.17985152 0.19632511 0.30659777
0.2678173 0.2860188 0.39889994 0.19666763 0.21007282 0.22883242 0.48980185 0.14627899
0.65213066 0.38250497 0.43961048 0.33448917 0.29174328 0.39946926 0.35012057 0.20030831
0.26758727 0.16247137 0.5844408 0.52507824 0.20631908 0.38810116 0.25594598 0.42406598
0.12755696 0.37661865 0.18233733 0.13837454 0.7891542 0.29634044 0.25333437 0.16602609
0.17071792 0.2138393 2.597902 1.1182587 0.62344563 0.26749074 0.19187957 0.7669393
