models/Segnet.pth (torch, 498038 bytes, 61 tensors)

encoder1.sequence.0.block.0.weight f4 [16, 3, 3, 3]
0.023858713 0.04357855 -0.00931237 -0.102931514 0.15491298 -0.1465235 0.09564044 0.064821936
0.11675624 0.1810235 0.14512882 -0.053942986 0.034035392 -0.0037266882 -0.106160596 0.022554547
0.18754151 0.11100768 0.1271062 -0.12759028 -0.038761813 -0.122614466 -0.018671717 -0.08073743
0.16194652 0.07726046 -0.120843224 0.04475249 0.0035967494 0.014482998 -0.15193838 -0.0019884869
0.14918214 0.07517016 -0.11242297 -0.06718227 -0.16590843 -0.12772109 0.18520269 -0.055938758
0.08495328 0.12338413 0.13439713 0.16162157 -0.0063131363 0.075728685 0.12334147 -0.03527026
-0.04587007 0.089419015 0.16071583 0.1656984 -0.16469108 0.08245178 0.01502001 0.068224154
0.16157283 -0.1581961 0.15907341 -0.08834906 0.08762581 0.040850334 0.14556754 0.02322276
0.13406457 0.1883949 0.08342522 0.00983843 0.061102618 0.12238673 4.9589915e-05 0.09884845
0.067530125 0.12734674 -0.176255 0.047906492 0.02968505 0.049893156 0.027078057 0.034907166
0.15388829 -0.12647219 0.051297203 0.10047631 -0.07767681 -0.15803024 -0.019745938 0.13050562
0.068374276 0.13903111 -0.17963001 0.12687005 -0.17691793 0.056963474 0.18367398 0.19105692
-0.06037184 0.0036457654 0.12007373 0.096215494 -0.099836215 0.18476358 -0.039107285 -0.15491974
0.1288706 -0.01219946 0.025122141 0.13953237 -0.079857476 0.0423872 0.1327881 0.083916776
0.05620302 0.14016746 0.034281366 -0.0069994098 -0.08978652 0.06574756 0.10878463 0.1173894
-0.0055385516 -0.073614456 0.028943677 -0.086453274 -0.18200803 -0.016349625 0.1598064 0.045885116
-0.16037394 -0.14349525 0.16066396 -0.06071869 0.019430788 0.18023278 -0.07692738 0.18468128
0.19041489 -0.1638528 0.18251263 0.1297963 -0.047140155 0.057509746 -0.027827993 -0.049693454
-0.099874616 0.17230628 0.08286741 0.017075397 -0.1780904 0.08362159 0.18224399 -0.14662777
0.12838376 0.0058471193 -0.08944689 -0.1762821 -0.14755523 -0.10836992 -0.07126427 0.14581916
0.14022203 0.04359124 -0.09295565 0.0033986464 0.09244183 0.041530706 0.057104692 -0.00988526
-0.13314153 -0.030538607 0.09063729 0.12589367 0.058537588 0.057826888 0.009291956 0.03959268
-0.18765214 0.1561089 0.008101093 -0.016206102 -0.15602954 -0.06419293 -0.13953894 0.12299876
0.090791136 -0.01824012 -0.03272915 0.11812314 -0.063907206 -0.054159954 0.12816101 0.119852945
0.033359703 0.10790715 0.16445772 -0.09862684 -0.045549106 -0.1635208 -0.0909895 0.10957157
-0.063179314 -0.012926076 -0.14229658 0.04465252 0.10870355 -0.06577284 0.12479374 0.093958504
-0.082829386 -0.039409444 -0.11477456 0.07790537 -0.100875996 0.0891601 -0.16110453 0.15428314
-0.19090158 0.11719647 0.008013313 0.18138923 -0.14836924 -0.065242514 -0.06063857 0.1508827
0.024912838 0.10968918 -0.04078771 0.15022852 -0.19077963 0.16287774 -0.06494421 -0.1833548
-0.024869481 0.18451665 0.008796775 0.053174417 -0.12389693 -0.07808997 0.13774939 0.10552761
-0.0576362 0.098972164 0.13146661 -0.12377758 0.014517155 0.08645804 -0.18038082 -0.02798235
-0.11611517 0.15337208 -0.1702923 0.13118024 0.16552526 0.11253921 0.05957397 0.022810746
00000000: 5973 c33c 6c7f 323d e992 18bc c2cd d2bd
00000010: 82a1 1e3e 420a 16be 23df c33d 5dc1 843d
00000020: e51d ef3d 395e 393e a69c 143e 52f3 5cbd
00000030: b268 0b3d 743b 74bb ba6a d9bd 50c4 b83c
00000040: e20a 403e ff57 e33d 2128 023e 07a7 02be
00000050: b5c4 1ebd 4b1d fbbd 6ef5 98bc aa59 a5bd
00000060: 4fd5 253e bb3a 9e3d a77c f7bd 634e 373d
00000070: 71b7 6b3b 194a 6d3c bc95 1bbe 4651 02bb
00000080: 34c3 183e d0f2 993d 043e e6bd dc96 89bd
00000090: e6e3 29be 51c9 02be c6a5 3d3e 0a20 65bd
000000a0: fcfb ad3d d2b0 fc3d 679f 093e 2080 253e
000000b0: 6dde cebb a417 9b3d 749a fc3d 8c77 10bd
000000c0: 41e2 3bbd 5121 b73d b192 243e d7ac 293e
000000d0: c7a4 28be 7bdc a83d 7d16 763c 1bb9 8b3d
000000e0: 5973 253e 29fe 21be 24e4 223e 5af0 b4bd
000000f0: 2975 b33d ae52 273d a80f 153e a83d be3c
00000100: 3948 093e 98ea 403e d7da aa3d 5e31 213c
00000110: bd46 7a3d e5a5 fa3d c4fe 4f38 0e71 ca3d
00000120: 3c4d 8a3d 2f67 023e 317c 34be 9939 443d
00000130: 102e f33c c45c 4c3d cdd2 dd3c d1fa 0e3d
00000140: e494 1d3e ed81 01be 041d 523d 86c6 cd3d
00000150: 0515 9fbd aed2 21be 3cc2 a1bc 44a3 053e
00000160: d007 8c3d 2c5e 0e3e eef0 37be 39ea 013e
00000170: f929 35be 8852 693d 0815 3c3e 6da4 433e
00000180: 7648 77bd cbed 6e3b 37e9 f53d a10c c53d
00000190: ee76 ccbd aa32 3d3e f62e 20bd 48a3 1ebe
000001a0: a8f6 033e 3ee0 47bc f3cc cd3c 93e1 0e3e
000001b0: 518c a3bd 339e 2d3d 9bf9 073e 8fdc ab3d
000001c0: 2335 663d 0f88 0f3e 9e6a 0c3d 4e5b e5bb
000001d0: ffe1 b7bd a8a6 863d 7aca de3d db69 f03d
000001e0: bd7c b5bb 2dc3 96bd 4a1b ed3c 6a0e b1bd
000001f0: 5060 3abe a6ef 85bc 4aa4 233e 08f2 3b3d
00000200: 1139 24be 6bf0 12be 1885 243e 29b4 78bd
00000210: 512d 9f3c f18e 383e 1a8c 9dbd 171d 3d3e
00000220: 1ffc 423e 07c9 27be 97e4 3a3e 52e9 043e
00000230: 0916 41bd 578f 6b3d 88f7 e3bc 5d8b 4bbd
00000240: 108b ccbd 0f71 303e 63b6 a93d b4e1 8b3c
00000250: 545d 36be cc41 ab3d 2b9e 3a3e 9725 16be
00000260: 0877 033e 3199 bf3b ee2f b7bd 4b83 34be
00000270: b818 17be 0cf1 ddbd 00f3 91bd 9e51 153e
00000280: 5d96 0f3e ba8c 323d 885f bebd d3bb 5e3b
00000290: 2452 bd3d 1a1c 2a3d 9ce6 693d c9f5 21bc
000002a0: 4156 08be 1a2c fabc 0ba0 b93d 45ea 003e
000002b0: 1cc5 6f3d e3db 6c3d 4a3d 183c ef2b 223d
000002c0: e227 40be 03db 1f3e 72ba 043c a9c2 84bc
000002d0: 35c6 1fbe 9577 83bd 4ce3 0ebe c6e6 fb3d
000002e0: b4f0 b93d 4e6c 95bc 000f 06bd 8bea f13d
000002f0: c8e1 82bd d4d6 5dbd a43c 033e 7675 f53d
00000300: 2fa4 083d 6dfe dc3d 9b67 283e defc c9bd
00000310: b391 3abd ff71 27be b458 babd 0f67 e03d
00000320: 2864 81bd e4c7 53bc 32b6 11be 90e5 363d
00000330: f89f de3d e9b3 86bd dc93 ff3d 516d c03d
00000340: 74a2 a9bd cc6b 21bd ed0e ebbd da8c 9f3d
00000350: 1398 cebd 9299 b63d 96f8 24be 66fc 1d3e
00000360: b47b 43be b404 f03d 454a 033c 19be 393e
00000370: 1bee 17be de9d 85bd 2660 78bd ff80 1a3e
00000380: 0216 cc3c b9a4 e03d 0411 27bd 81d5 193e
00000390: bc5b 43be 6cc9 263e 7801 85bd 5cc1 3bbe
000003a0: 15bb cbbc eff1 3c3e 5920 103c 6bcd 593d
000003b0: acbd fdbd a2ed 9fbd 2d0e 0d3e dc1e d83d
000003c0: f013 6cbd ebb1 ca3d 2f9f 063e 1a7f fdbd
000003d0: 5cd9 6d3c ea10 b13d c0b5 38be 3e3b e5bc
000003e0: cacd edbd 920d 1d3e 1b61 2ebe 1d54 063e
000003f0: 747f 293e f57a e63d d603 743d 9add ba3c

encoder1.sequence.0.block.1.weight f4 [16]
1.0000076 0.9999945 0.99999595 0.99999475 1.0 1.0 1.0 1.0000001
1.0000001 0.99999475 1.0 0.99999917 1.0000064 1.0 0.99999857 1.0
00000000: 4000 803f a4ff 7f3f bcff 7f3f a8ff 7f3f
00000010: 0000 803f 0000 803f 0000 803f 0100 803f
00000020: 0100 803f a8ff 7f3f 0000 803f f2ff 7f3f
00000030: 3600 803f 0000 803f e8ff 7f3f 0000 803f

encoder1.sequence.0.block.1.bias f4 [16]
4.6827645e-06 -3.5660755e-06 -2.6272046e-06 -4.9509677e-06 2.7818678e-06 -3.7544484e-07 7.877913e-07 1.6152988e-07
1.9138738e-06 -5.5219965e-07 -1.2866312e-07 -1.7140673e-06 5.574707e-06 -1.2939823e-06 -4.1299477e-06 3.8101368e-06
00000000: a420 9d36 b650 6fb6 084f 30b6 7d20 a6b6
00000010: 20b0 3a36 bf90 c9b4 9b78 5335 ff70 2d34
00000020: 1a70 0036 df3a 14b5 a626 0ab4 e70e e6b5
00000030: 5e0e bb36 e5ac adb5 fb93 8ab6 a7b1 7f36

encoder1.sequence.0.block.1.running_mean f4 [16]
14.637095 19.458113 38.22826 16.529709 10.086056 10.051615 2.6826487 2.7201886
10.543601 -0.018520117 7.6194844 15.76446 3.660379 -7.2057033 12.968555 -3.9520388
00000000: 8b31 6a41 37aa 9b41 bde9 1842 d83c 8441
00000010: 7c60 2141 6ad3 2041 84b0 2b40 9217 2e40
00000020: 97b2 2841 80b7 97bc d1d2 f340 3a3b 7c41
00000030: a643 6a40 1f95 e6c0 347f 4f41 34ee 7cc0

encoder1.sequence.0.block.1.running_var f4 [16]
398.72495 563.5559 2091.516 438.13434 177.4877 235.37454 44.5569 26.932924
204.33728 53.64573 194.79431 395.5596 84.28623 171.79985 252.39185 60.32938
00000000: cb5c c743 94e3 0c44 42b8 0245 3211 db43
00000010: da7c 3143 e25f 6b43 443a 3242 a176 d741
00000020: 5856 4c43 3a95 5642 58cb 4243 a1c7 c543
00000030: 8d92 a842 c3cc 2b43 5064 7c43 4951 7142

encoder1.sequence.0.block.3.weight f4 [16, 16, 3, 3]
0.079820655 0.0024169527 -0.034954146 0.07319504 -0.023719262 -0.06511066 -0.02139393 0.015787492
-0.050485514 -0.012463251 -0.06289522 -0.071589984 -0.03874212 0.07497746 0.061800893 0.060887616
-0.009410643 -0.047195088 -0.06817565 0.026223352 -0.016268427 -0.046067894 -0.07177155 0.036343053
-0.024840575 -0.06551179 -0.040422063 -0.018461296 0.035459463 -0.08305389 -0.07595373 -0.071224436
-0.027732741 -0.041593768 0.03528336 -0.045779046 0.007560868 0.028802676 -0.0071816933 -0.009497147
-0.034656975 -0.032840196 0.05264463 0.040583357 0.049605083 -0.0582403 -0.0777419 -0.04506395
-8.45722e-05 -0.08003588 0.00853652 0.022649651 0.05389091 -0.07222862 -0.052156907 0.028204385
-0.035456 0.051839605 0.03945086 -0.034732647 -0.082148574 -0.04351534 -0.075368844 -0.0035283847
0.013814944 -0.063867785 0.07801649 0.026328437 0.038163573 -0.023782756 -0.005956049 0.045416158
-0.0069809672 0.07098988 0.034753926 0.009164237 -0.023733249 0.06527974 -0.040908743 0.014291824
0.017831614 0.06117996 0.012859394 0.026885575 -0.07286619 0.06056112 -0.018445149 0.052528422
-0.052453153 -0.039606404 0.054567434 0.078574285 0.069451444 -0.068794556 0.07776564 -0.0046797134
-0.017759295 0.0060021654 0.045939412 -0.061787166 -0.03058296 0.012955723 -0.001176835 -0.054229252
-0.017911378 0.055003684 0.01583474 0.021856967 -0.009465098 0.060560457 0.074801244 0.035733335
0.07693486 0.022961378 -0.0487475 0.039329052 0.026952194 -0.047386076 -0.029800983 -0.04108696
-0.0555813 0.034196656 0.059649486 0.078073494 -0.008876055 0.015016414 0.057640966 -0.014033824
-0.06837485 0.06460245 -0.0772708 -0.0631457 0.034155246 -0.074274056 -0.04636497 -0.006397635
0.020257924 0.060266063 -0.015209198 0.000666704 -0.047140524 -0.010721171 -0.04033439 -0.013887861
0.006913124 -0.07666902 0.026753627 -0.080624126 -0.013029331 -0.054904487 -0.0716217 0.0019450241
-0.04765302 -0.05328055 0.083119124 -0.06802819 0.023471823 0.035229653 0.05789259 -0.06994835
0.043284792 0.04235628 -0.021926021 -0.04466755 0.044986803 0.017745085 0.060276452 -0.06599924
0.04028409 -0.06420449 -0.012821379 0.01950459 -0.059224073 0.047585987 0.05762201 0.04299197
-0.07364797 -0.018335508 0.034610543 0.011755501 -0.05097487 0.023319412 0.018722104 0.018782798
0.07020187 0.04414988 0.025021082 0.05655152 -0.009120189 0.081490025 0.038313974 0.04830727
-0.057942882 -0.0077854525 0.01834632 0.0018528157 0.042165965 0.036526408 0.08062353 0.010671376
0.0085344175 0.029027432 -0.008578129 0.04739212 -0.06387915 -0.0026626042 0.025474302 -0.05544893
0.052686322 -0.032830972 -0.07499984 0.038115866 -0.03688123 -0.016600102 -0.044150647 0.08288577
-0.07765088 -0.039775908 -0.04546864 -0.055888742 0.03275422 0.05833345 0.083059035 -0.024558127
-0.030768113 -0.007950556 0.02170882 -0.007174176 -0.050701704 -0.024894623 -0.02889524 -0.08072521
0.07922409 0.04639959 -0.051428605 -0.015944859 0.024835002 0.015316028 -0.0020114675 0.05317037
0.040011577 0.035158418 -0.058678582 0.039038654 0.0801845 0.04697259 -0.07821294 0.035748336
0.015400256 -0.053904112 0.04662402 0.026146004 0.052348536 0.019780748 0.024847 0.034861885
00000000: 0379 a33d bd65 1e3b 142c 0fbd 48e7 953d
00000010: e64e c2bc bd58 85bd 5342 afbc c554 813c
00000020: e6c9 4ebd aa32 4cbc 36cf 80bd c59d 92bd
00000030: 0fb0 1ebd c88d 993d ef22 7d3d 4b65 793d
00000040: 192f 1abc a34f 41bd ad9f 8bbd 5bd2 d63c
00000050: 5d45 85bc b0b1 3cbd f6fc 92bd 74dc 143d
00000060: 767e cbbc 0c2b 86bd 9b91 25bd 253c 97bc
00000070: f13d 113d 2818 aabd a18d 9bbd 1ede 91bd
00000080: c62f e3bc 3a5e 2abd 4985 103d cf82 3bbd
00000090: 28c1 f73b 97f3 eb3c 6954 ebbb ec99 1bbc
000000a0: 79f4 0dbd 7183 06bd e5a1 573d bc3a 263d
000000b0: b32e 4b3d 618d 6ebd 2537 9fbd fa94 38bd
000000c0: 5b5c b1b8 dae9 a3bd c3dc 0b3c c38b b93c
000000d0: b7bc 5c3d 99ec 93bd 7ba2 55bd e20c e73c
000000e0: 503a 11bd c455 543d 3a97 213d d243 0ebd
000000f0: 833d a8bd 243d 32bd fb5a 9abd 793c 67bb
00000100: 1358 623c 1dcd 82bd 1cc7 9f3d bcae d73c
00000110: 6851 1c3d 0ed4 c2bc f62a c3bb 4b06 3a3d
00000120: 99c0 e4bb 2463 913d 225a 0e3d 9925 163c
00000130: 3b6c c2bc 62b1 853d ed8f 27bd 4128 6a3c
00000140: 9b13 923c d697 7a3d 35b0 523c 233f dc3c
00000150: de3a 95bd f00e 783d 481a 97bc 0b28 573d
00000160: 1ed9 56bd 533a 22bd 1a82 5f3d 8eeb a03d
00000170: 8f3c 8e3d 29e4 8cbd 9843 9f3d 4858 99bb
00000180: f17b 91bc d0ad c43b f72a 3c3d 8a14 7dbd
00000190: 1e89 fabc 3e44 543c 0840 9aba 7e1f 5ebd
000001a0: e2ba 92bc 8b4b 613d dbb7 813c 620d b33c
000001b0: 8013 1bbc 3e0e 783d 6531 993d 1e5d 123d
000001c0: 0690 9d3d 8019 bc3c 75ab 47bd 8017 213d
000001d0: d9ca dc3c e717 42bd 3121 f4bc cd4a 28bd
000001e0: 38a9 63bd cb11 0c3d 0553 743d ffe4 9f3d
000001f0: df6c 11bc 6807 763c ef18 6c3d 20ee 65bc
00000200: 1d08 8cbd 4a4e 843d 2740 9ebd 8852 81bd
00000210: 5fe6 0b3d ff1c 98bd 32e9 3dbd 41a3 d1bb
00000220: f2f3 a53c 8cd9 763d 0030 79bc c0c5 2e3a
00000230: 6c16 41bd daa7 2fbc ac35 25bd e989 63bc
00000240: 7d87 e23b a604 9dbd 6c2a db3c 431e a5bd
00000250: fa78 55bc 87e3 60bd 66ae 92bd 2ef0 fe3a
00000260: d02f 43bd b53c 5abd 5c3a aa3d 5d52 8bbd
00000270: fb47 c03c f84c 103d c820 6d3d 1541 8fbd
00000280: 654b 313d c77d 2d3d 339e b3bc 52f5 36bd
00000290: 1544 383d 245e 913c 71e4 763d 9c2a 87bd
000002a0: ee00 253d a57d 83bd c310 52bc 17c8 9f3c
000002b0: f194 72bd 86e9 423d 0f05 6c3d 5918 303d
000002c0: bfd4 96bd 5934 96bc c9c3 0d3d 259a 403c
000002d0: 06cb 50bd 5a08 bf3c 195f 993c 62de 993c
000002e0: ffc5 8f3d 81d6 343d 03f9 cc3c 91a2 673d
000002f0: d86c 15bc 3ee4 a63d 1def 1c3d d8dd 453d
00000300: 8455 6dbd 1c1d ffbb 064b 963c 2eda f23a
00000310: 38b6 2c3d b79c 153d f31d a53d ffd6 2e3c
00000320: f1d3 0b3c f0ca ed3c 488b 0cbc 3d1e 423d
00000330: 12d3 82bd 167f 2ebb 7caf d03c 6b1e 63bd
00000340: 9dcd 573d c579 06bd 8499 99bd 621f 1c3d
00000350: c610 17bd f0fc 87bc 4fd7 34bd 04c0 a93d
00000360: 6d07 9fbd 10ec 22bd 533d 3abd 98eb 64bd
00000370: 4a29 063d 0eef 6e3d db1a aa3d 202e c9bc
00000380: 690d fcbc 0d43 02bc b2d6 b13c 5a15 ebbb
00000390: 97ac 4fbd cfef cbbc b6b5 ecbc 4253 a5bd
000003a0: 3d40 a23d 7f0d 3e3d cda6 52bd cb9e 82bc
000003b0: c672 cb3c 14f0 7a3c d3d2 03bb 2dc9 593d
000003c0: 2ee3 233d 4602 103d f458 70bd ffe6 1f3d
000003d0: c537 a43d 5566 403d 1b2e a0bd d96c 123d
000003e0: 5b51 7c3c 8fca 5cbd d4f8 3e3d 2530 d63c
000003f0: 6b6b 563d 3c0b a23c f08b cb3c 56cb 0e3d

encoder1.sequence.0.block.4.weight f4 [16]
1.0 0.9999999 0.9999956 0.9999984 1.0 1.0 1.0 1.0
0.99999595 1.0 1.0 0.9999974 1.0 0.99999994 1.0 1.0000116
00000000: 0000 803f feff 7f3f b6ff 7f3f e5ff 7f3f
00000010: 0000 803f 0000 803f 0000 803f 0000 803f
00000020: bcff 7f3f 0000 803f 0000 803f d4ff 7f3f
00000030: 0000 803f ffff 7f3f 0000 803f 6100 803f

encoder1.sequence.0.block.4.bias f4 [16]
-1.1179483e-06 -1.2416131e-06 -3.7276704e-06 -6.0915096e-07 6.095044e-07 -4.6222655e-07 3.0393876e-06 5.7709946e-07
-2.8486777e-06 3.0074548e-07 1.6127555e-06 -2.5143456e-06 3.0300419e-07 3.8369743e-07 -3.02394e-07 4.1122926e-06
00000000: 690c 96b5 80a5 a6b5 e428 7ab6 8984 23b5
00000010: d39c 2335 ef27 f8b4 48f8 4b36 f9e9 1a35
00000020: e92b 3fb6 2576 a134 db75 d835 21bc 28b6
00000030: 94ac a234 f9fe cd34 b758 a2b4 53fc 8936

encoder1.sequence.0.block.4.running_mean f4 [16]
-0.22464618 0.22263506 0.39916644 -0.013975762 -0.054941703 -0.25464907 -0.30551982 0.22308354
0.2986344 -0.07239592 -0.44131103 0.018230341 -0.07900454 -0.11652926 0.044848226 0.15183216
00000000: a609 66be 72fa 633e 8b5f cc3e 98fa 64bc
00000010: 8d0a 61bd 5d61 82be 186d 9cbe 0370 643e
00000020: 9ce6 983e 5044 94bd 85f3 e1be cc57 953c
00000030: 22cd a1bd e5a6 eebd c6b2 373d e479 1b3e

encoder1.sequence.0.block.4.running_var f4 [16]
0.31222427 0.17776823 0.08722367 0.05076593 0.11311204 0.21223803 0.15065213 0.1315893
0.09130841 0.08218357 0.51500773 0.05611394 0.1404619 0.058672674 0.42608193 0.16158664
00000000: dcdb 9f3e e008 363e 53a2 b23d f0ef 4f3d
00000010: 49a7 e73d ed54 593e 8d44 1a3e 58bf 063e
00000020: e7ff ba3d dc4f a83d 8cd7 033f bbd7 653d
00000030: 3fd5 0f3e c252 703d 6927 da3e f876 253e

encoder2.sequence.0.block.0.weight f4 [32, 16, 3, 3]
-0.004199369 0.06555365 -0.06359019 -0.060723655 -0.070745185 0.0680148 0.045715388 0.009651318
-0.046432763 0.010639338 0.05465608 0.0059420713 0.037367288 0.07134703 -0.052614305 -0.07283906
-0.033517193 0.046410095 -0.08176435 -0.080402 0.02809438 0.011391979 -0.005172166 0.043925848
-0.08041056 -0.002404877 -0.00079248036 0.04399302 -0.021625487 -0.039186772 -0.052237663 -0.07646824
-0.043010153 -0.045169365 -0.0041196155 0.079524346 0.06273611 0.02471204 0.003017339 0.048227064
-0.043755267 0.039567698 0.008200669 -0.0797253 -0.03287487 0.048476912 0.008291237 -0.07914788
0.010209506 -0.013354953 -0.08290678 0.05672876 0.06603305 -0.00914387 0.014214573 0.0013317246
0.04472624 0.03246243 -0.008772026 -0.01333435 -0.032717496 -0.07523777 0.05603859 0.08057266
-0.03878255 -0.010320302 0.061047267 -0.030364241 0.06326039 0.05427572 0.0072981818 -0.069948845
-0.029846344 -0.06878279 -0.019713199 0.06720024 -0.0074562216 0.028782025 0.063213274 0.017070077
0.061812274 -0.07352298 -0.029724376 -0.07424362 -0.03890995 0.051341873 -0.055533193 -0.03628254
-0.0024551905 -0.06023382 0.058198217 -0.033151977 -0.034257203 -0.039836626 0.07326487 0.06371368
-0.03734043 -0.02202693 0.07289221 0.08258501 0.010584241 0.063667394 0.03459092 -0.07540775
-0.026182028 0.07861702 -0.008579535 -0.03093508 -0.04093467 -0.05662938 0.021478796 0.037854496
-0.01710426 -0.07351652 0.06679414 0.055203646 0.0015241058 0.034639582 -0.06758708 -0.05736904
-0.04758589 -0.033269107 0.0030463582 0.007941456 0.0111625455 -0.070629515 -0.005044369 0.03461238
0.027567755 0.042240478 -0.046111073 -0.070489354 0.05553773 0.032933824 -0.059211053 -0.014950864
0.061500285 -0.025488311 0.023002157 -0.024790836 0.06092993 0.04894793 -0.063054286 -0.0060582715
0.04988175 -0.03404061 -0.04348631 -0.05528509 -0.014494164 -0.0018154128 0.05414681 -0.050030958
0.035016622 0.040262025 -0.0769796 0.010752126 -0.061663397 0.015693435 0.06692277 -0.01476125
0.046364248 -0.07502782 0.024523804 0.02940257 0.07943073 0.059906416 -0.02939583 0.039490562
-0.03477528 -0.049361672 0.03682851 0.0778573 -0.08049053 0.013632074 -0.036489476 -0.046143666
-0.07174991 -0.0585383 0.036980607 0.08233763 -0.079549804 0.018463783 0.0512876 -0.07916783
0.04238794 0.007401554 -0.006015605 0.0019387153 -0.014418284 -0.00037408635 -0.0016027334 0.07203548
0.07022442 0.027291603 0.04567845 -0.06698693 -0.027795784 -0.03630128 0.08215694 -0.0036737754
0.06461066 -0.018286742 0.013108497 -0.0660972 -0.035893675 0.004565896 -0.056362443 -0.08310185
0.046527993 0.05715585 0.0011995514 -0.020718418 0.04167761 -0.04905054 0.03901602 0.06696782
-0.016457614 0.0419246 -0.02484691 0.071201675 -0.04059187 0.054674227 0.02369463 -0.005803561
-0.06752459 -0.056204792 -0.060691398 -4.9126935e-05 -0.035245925 0.026128117 -0.008959892 0.048088845
-0.07498203 0.067414984 -0.023005353 0.0656149 -0.069115564 -0.06214594 0.045353804 0.019516261
-0.039770808 0.069478236 -0.037283577 -0.061932947 -0.012327935 0.014601559 -0.053643525 -0.049834978
-0.06909526 -0.035594743 0.006465239 -0.002472899 0.047500998 -0.011376127 -0.06312313 -0.07111786
00000000: dc9a 89bb fe40 863d 933b 82bd 5eb9 78bd
00000010: dae2 90bd 584b 8b3d 0f40 3b3d 9020 1e3c
00000020: 4830 3ebd 9e50 2e3c 0edf 5f3d b5b5 c23b
00000030: 710e 193d 641e 923d 1982 57bd a52c 95bd
00000040: 5349 09bd 8318 3e3d 1174 a7bd cea9 a4bd
00000050: 2f26 e63c 6ca5 3a3c 467b a9bb 97eb 333d
00000060: 4bae a4bd 249b 1dbb 75be 4fba 0632 343d
00000070: ef27 b1bc 4f82 20bd 29f7 55bd 619b 9cbd
00000080: 6a2b 30bd 8303 39bd d7fd 86bb a9dd a23d
00000090: ca7b 803d e770 ca3c 8cbe 453b be89 453d
000000a0: b938 33bd bd11 223d 195c 063c 0547 a3bd
000000b0: cda7 06bd ba8f 463d f8d7 073c 4918 a2bd
000000c0: c645 273c bcce 5abc 08cb a9bd 6b5c 683d
000000d0: 563c 873d 2cd0 15bc 3ee4 683c 438d ae3a
000000e0: dd32 373d 53f7 043d 8bb8 0fbc 5178 5abc
000000f0: c802 06bd 4316 9abd b888 653d 4703 a53d
00000100: 73da 1ebd 7c16 29bc b30c 7a3d 6ebe f8bc
00000110: aa8e 813d 3850 5e3d 9625 ef3b 5741 8fbd
00000120: 5280 f4bc fedd 8cbd 937d a1bc 48a0 893d
00000130: 5253 f4bb 48c8 eb3c f675 813d 8cd6 8b3c
00000140: de2e 7d3d 3793 96bd 8980 f3bc 0a0d 98bd
00000150: 0a60 1fbd db4b 523d c676 63bd 009d 14bd
00000160: 43e7 20bb bdb7 76bd 4161 6e3d 5eca 07bd
00000170: 4851 0cbd bb2b 23bd e40b 963d 517c 823d
00000180: 47f2 18bd d271 b4bc 8348 953d 5422 a93d
00000190: 8669 2d3c 0d64 823d 35af 0d3d 616f 9abd
000001a0: b17b d6bc f601 a13d 2e91 0cbc 916b fdbc
000001b0: 1dab 27bd 35f4 67bd 4df4 af3c 510d 1b3d
000001c0: 3c1e 8cbc d48f 96bd 5ecb 883d 381d 623d
000001d0: 81c4 c73a 3ce2 0d3d 186b 8abd ccfb 6abd
000001e0: 6ce9 42bd 3045 08bd 69a5 473b e11c 023c
000001f0: 1ce3 363c 35a6 90bd 3c4b a5bb b6c5 0d3d
00000200: c6d5 e13c 5a04 2d3d f7de 3cbd b95c 90bd
00000210: 887b 633d 9ee5 063d 4a87 72bd 78f4 74bc
00000220: b9e7 7b3d ddcc d0bc 056f bc3c 2716 cbbc
00000230: aa91 793d a07d 483d 9b22 81bd 7784 c6bb
00000240: ce50 4c3d 2b6e 0bbd b31e 32bd 9e72 62bd
00000250: ee78 6dbc 25f3 edba 0cc9 5d3d 43ed 4cbd
00000260: 976d 0f3d cbe9 243d 7ba7 9dbd af29 303c
00000270: c292 7cbd 858f 803c ce0e 893d 2bd9 71bc
00000280: 70e8 3d3d 30a8 99bd 25e6 c83c a9dd f03c
00000290: 94ac a23d 6e60 753d 86cf f0bc dbc0 213d
000002a0: 8670 0ebd 772f 4abd 7ed9 163d a673 9f3d
000002b0: 38d8 a4bd 1059 5f3c fd75 15bd 2401 3dbd
000002c0: 9ef1 92bd dbc5 6fbd fa78 173d a2a0 a83d
000002d0: 02eb a2bd 5c41 973c f212 523d be22 a2bd
000002e0: fa9e 2d3d bc88 f23b 8d1e c5bb 7e1c fe3a
000002f0: ab3a 6cbc 0521 c4b9 cf12 d2ba 5687 933d
00000300: d2d1 8f3d a492 df3c 5419 3b3d 7230 89bd
00000310: fcb3 e3bc a7b0 14bd e641 a83d b9c3 70bb
00000320: 9852 843d 14ce 95bc 05c5 563c f85d 87bd
00000330: 3f05 13bd 839d 953b 4edc 66bd 4d31 aabd
00000340: 2394 3e3d 411c 6a3d 443a 9d3a acb9 a9bc
00000350: 24b6 2a3d 38e9 48bd 43cf 1f3d 6d26 893d
00000360: 1ed2 86bc 21b9 2b3d bf8b cbbc 2fd2 913d
00000370: a943 26bd 15f2 5f3d 3e1b c23c cc2b bebb
00000380: 554a 8abd ff36 66bd 8b97 78bd a50d 4eb8
00000390: 085e 10bd a20a d63c 83cc 12bc cff8 443d
000003a0: 2e90 99bd de10 8a3d b975 bcbc 1b61 863d
000003b0: 768c 8dbd be8c 7ebd e9c4 393d 91e0 9f3c
000003c0: b7e6 22bd 9b4a 8e3d aab6 18bd 67ad 7dbd
000003d0: 1bfb 49bc 613b 6f3c 50b9 5bbd c31f 4cbd
000003e0: d181 8dbd cbcb 11bd 5bda d33b 5c10 22bb
000003f0: 6890 423d ef62 3abc b346 81bd 3ea6 91bd

encoder2.sequence.0.block.1.weight f4 [32]
1.0 1.0 1.0 1.0 1.0 1.0 1.0 1.0
1.0 1.0 1.0 1.0 1.0 1.0 1.0 1.0
1.0 1.0 1.0 1.0 1.0 1.0 1.0 1.0
1.0 1.0 1.0 1.0 1.0 1.0 1.0 1.0
00000000: 0000 803f 0000 803f 0000 803f 0000 803f
00000010: 0000 803f 0000 803f 0000 803f 0000 803f
00000020: 0000 803f 0000 803f 0000 803f 0000 803f
00000030: 0000 803f 0000 803f 0000 803f 0000 803f
00000040: 0000 803f 0000 803f 0000 803f 0000 803f
00000050: 0000 803f 0000 803f 0000 803f 0000 803f
00000060: 0000 803f 0000 803f 0000 803f 0000 803f
00000070: 0000 803f 0000 803f 0000 803f 0000 803f

encoder2.sequence.0.block.1.bias f4 [32]
2.1496578e-07 3.9298445e-07 -4.6710304e-07 -3.930143e-07 -5.907222e-07 -1.4229484e-07 -2.9105502e-07 1.9470859e-07
-5.2921456e-07 9.196725e-09 -3.3546178e-07 -6.593184e-08 3.6824352e-07 -2.0251333e-07 -2.9588594e-07 5.3564736e-07
5.405918e-08 1.452369e-07 -3.7979694e-07 7.935446e-07 1.1232957e-07 4.6335262e-07 -9.8358605e-08 2.3797514e-07
1.9193896e-08 -1.812614e-08 -5.5697267e-08 1.0866391e-07 4.9800114e-08 -4.0111747e-08 1.81875e-07 1.0612949e-06
00000000: 58d1 6634 5ffb d234 27c6 fab4 79ff d2b4
00000010: 1f92 1eb5 b5c9 18b4 4c42 9cb4 1711 5134
00000020: 590f 0eb5 a0ff 1d32 8419 b4b4 6a96 8db3
00000030: 01b3 c534 7172 59b4 41da 9eb4 68c9 0f35
00000040: b22e 6833 6af2 1b34 e5e6 cbb4 f803 5535
00000050: d639 f133 b3c2 f834 3739 d3b3 1c86 7f34
00000060: d3df a432 ceb3 9bb2 cb37 6fb3 9e5a e933
00000070: cee3 5533 5547 2cb3 6b49 4334 d171 8e35

encoder2.sequence.0.block.1.running_mean f4 [32]
-0.10547424 -0.16040345 -0.14646167 -0.45222265 -0.09033744 0.031990886 0.108816005 -0.05116055
-0.29741558 0.33071804 0.22783786 0.27990657 -0.011134358 -0.23302227 0.3195169 0.21795413
-0.04388936 0.13170294 -0.13883296 0.2219005 0.24552517 0.18064976 -0.065713465 -0.39852235
-0.42697594 -0.18868238 0.27584353 0.007185229 0.56481564 -0.33577898 0.21757954 -0.15807845
00000000: e102 d8bd cd40 24be 0cfa 15be ba89 e7be
00000010: d602 b9bd e008 033d edda de3d ba8d 51bd
00000020: db46 98be e053 a93e 544e 693e ea4f 8f3e
00000030: e26c 36bc 649d 6ebe b897 a33e 5e2f 5f3e
00000040: 54c5 33bd 23dd 063e 3a2a 0ebe e239 633e
00000050: f36a 7b3e 40fc 383e c894 86bd 1f0b ccbe
00000060: 979c dabe f435 41be 5d3b 8d3e 1272 eb3b
00000070: c297 103f 39eb abbe 2ccd 5e3e 51df 21be

encoder2.sequence.0.block.1.running_var f4 [32]
0.13380094 0.15953481 0.1407863 0.62757987 0.15989709 0.115619816 0.16848448 0.20031105
0.11860436 0.11223787 0.30536652 0.1594676 0.058016926 0.11704147 0.12002122 0.16816308
0.079916865 0.19255091 0.20825525 0.19815098 0.119856186 0.13425143 0.092735276 0.43863946
0.113050364 0.14159533 0.093558215 0.07515986 0.13663837 0.3695724 0.110130124 0.12343576
00000000: 1d03 093e 185d 233e 492a 103e 13a9 203f
00000010: 10bc 233e 15ca ec3d 3287 2c3e 571e 4d3e
00000020: d8e6 f23d f8dc e53d 0059 9c3e 794b 233e
00000030: 28a3 6d3d 70b3 ef3d afcd f53d f132 2c3e
00000040: 74ab a33d 112c 453e dd40 553e 17e8 4a3e
00000050: 2977 f53d 3579 093e feeb bd3d 5a95 e03e
00000060: f386 e73d 5efe 103e 739b bf3d 6aed 993d
00000070: eeea 0b3e 9838 bd3e e78b e13d e3cb fc3d

encoder2.sequence.0.block.3.weight f4 [32, 32, 3, 3]
0.040180497 0.029884312 -0.035764597 0.029426085 0.05795857 -0.019507527 0.0134603 0.05703829
0.050506804 0.008553374 0.033097174 0.0015230823 -0.001252398 -0.00054088124 -0.0425546 0.02154447
0.04643503 0.05718117 0.05026599 -0.005264573 -0.025860015 0.050196286 0.038855642 -0.042947847
-0.052628387 0.055355947 -0.039468728 0.033364967 0.053190906 0.053714298 0.05358447 0.058876127
-0.040625002 -0.0037545895 0.05862306 -0.0025207018 -0.054232556 0.020308124 -0.02229026 -0.028899914
0.04840652 0.031109389 0.038036894 -0.0051592346 -0.05257889 -0.05456346 0.054326806 0.04858195
-0.054631002 -0.057315867 0.024701796 0.008881695 0.047544967 0.048424255 0.04760495 -0.03950946
0.053719975 0.009895623 -0.0033947253 -0.013008517 0.05080426 -0.026936332 0.010190711 0.027485145
-0.036844242 -0.05713836 0.025527732 -0.021736354 -0.04600108 0.0029431665 -0.02948894 0.026945302
0.03081395 -0.01983526 -0.028864639 -0.04681397 -0.050317336 0.018206539 0.016437978 -0.014181047
0.0122566875 0.021518864 0.054027107 -0.039430626 -0.047453023 0.04580483 0.012318266 0.056392506
-0.056407012 0.05827469 -0.04052469 0.012535485 0.04831357 0.024146644 0.043514486 -0.036833182
-0.009122225 0.045211166 -0.009992601 0.040422525 -0.036601916 0.052412983 -0.029711846 -0.0155722825
0.030152423 -0.036127876 -0.0248501 -0.02367214 -0.052798398 -0.011025571 -0.023646137 0.031633846
0.0532384 0.0047579487 0.0014927853 0.025404291 0.038220774 -0.0034817834 -0.007500545 -0.02632647
-0.016051717 0.011744049 -0.0035380572 -0.04901792 0.0017447509 0.044620372 -0.025912559 0.043128327
0.040012017 0.022191254 0.027922 -0.024804875 -0.016529826 -0.0030570962 0.009904821 -0.044328205
0.0278537 -0.033504415 -0.013259828 -0.027790671 0.032320373 0.043648705 -0.029321762 -0.000665863
-0.054826044 -0.030719895 -0.022092251 0.029810397 0.035108905 0.0152790835 0.014714641 -0.001911036
0.033633668 0.030905232 -0.0027881819 0.04282418 -0.0060321647 0.0074581676 -0.036467995 -0.043249186
0.0039710356 -0.008538251 -0.021695945 -0.053624894 0.048641134 -0.04135998 -0.0076626656 -0.04361296
-0.034712832 -0.021091422 -0.03363338 0.01963803 0.045423597 0.029932147 0.0460407 0.03336093
0.025992041 0.023627125 -0.034227677 -0.04097592 -0.013789926 -0.022946484 -0.03208003 -0.054441538
0.040583067 -0.024427146 0.022845482 -0.023074653 -0.052016485 -3.185542e-05 0.035238978 -0.03334151
0.039370004 0.05120958 -0.010513208 -0.0006257643 0.045454714 0.008830113 0.047333628 0.050102424
-0.008521398 0.052602265 0.04632683 0.01588019 0.037951577 0.038644098 0.01193183 -0.029767198
0.027687103 0.045159593 -0.032451924 -0.019235259 0.050272997 0.052585892 0.048041508 0.02471942
0.03946514 -0.025076423 -0.03789011 -0.048583772 -0.046364076 0.057856034 0.039331555 -0.01922084
-0.016178435 -0.052539583 -0.014833551 0.03770619 -0.0017928659 -0.009920445 -0.03760365 0.01910198
-0.00089663046 0.05280158 -0.024870835 -0.05670137 -0.025069883 0.03255729 0.00212262 -0.0329926
0.015068515 -0.018364038 0.048595957 0.0036558383 0.035805367 -0.037117224 0.037511036 0.05237481
-0.016284635 0.041910782 0.05878932 -0.03664519 -0.005521382 0.05306389 0.024307225 0.055990305
00000000: 4e94 243d f2cf f43c e67d 12bd f90e f13c
00000010: f765 6d3d 40ce 9fbc 9788 5c3c fba0 693d
00000020: 39e0 4e3d 7323 0c3c e790 073d 29a2 c73a
00000030: 8127 a4ba edc9 0dba bb4d 2ebd 077e b03c
00000040: a832 3e3d cd36 6a3d b6e3 4d3d 7082 acbb
00000050: 62d8 d3bc 9f9a 4d3d 1827 1f3d 15ea 2fbd
00000060: dd90 57bd ebbc 623d f6a9 21bd b4a9 083d
00000070: b5de 593d 8603 5c3d 647b 5b3d 1828 713d
00000080: 6766 26bd 8f0f 76bb bc1e 703d 5c32 25bb
00000090: f522 5ebd 395d a63c 109a b6bc 83bf ecbc
000000a0: ea45 463d 1ed9 fe3c 93cc 1b3d cc0e a9bb
000000b0: f65c 57bd ef7d 5fbd c985 5e3d defd 463d
000000c0: c2c4 5fbd 0bc4 6abd 6c5b ca3c 8784 113c
000000d0: 83be 423d 8358 463d 68fd 423d acd4 21bd
000000e0: 7a09 5c3d 4021 223c 0a7a 5ebb ad21 55bc
000000f0: 2118 503d 95a9 dcbc f1f6 263c 8728 e13c
00000100: fde9 16bd ea09 6abd 891f d13c 7010 b2bc
00000110: a16b 3cbd 24e2 403b ca92 f1bc 65bc dc3c
00000120: 896d fc3c 8e7d a2bc 8975 ecbc 01c0 3fbd
00000130: 8d19 4ebd e125 953c f0a8 863c 9f57 68bc
00000140: 46d0 483c 5448 b03c 874b 5d3d 0282 21bd
00000150: 1a5e 42bd d89d 3b3d 8dd2 493c d4fb 663d
00000160: 0a0b 67bd 71b1 6e3d 38fd 25bd a361 4d3c
00000170: 73e4 453d 2fcf c53c 3f3c 323d 64de 16bd
00000180: 6375 15bc 582f 393d 02b8 23bc 1792 253d
00000190: e4eb 15bd ffae 563d 4266 f3bc e322 7fbc
000001a0: 3702 f73c d3fa 13bd 7092 cbbc 13ec c1bc
000001b0: 2243 58bd 99a4 34bc 8bb5 c1bc 7e92 013d
000001c0: 8210 5a3d 91e8 9b3b 90a9 c33a a91c d03c
000001d0: 638d 1c3d a22e 64bb 22c7 f5bb 9caa d7bc
000001e0: e47e 83bc 1d6a 403c c0de 67bb 04c7 48bd
000001f0: 20b0 e43a dac3 363d 9346 d4bc 54a7 303d
00000200: a4e3 233d 6fca b53c aebc e43c 9833 cbbc
00000210: 8f69 87bc 9059 48bb d547 223c 7e91 35bd
00000220: 712d e43c ed3b 09bd c03f 59bc 43a9 e3bc
00000230: 5e62 043d fcc8 323d 3134 f0bc 4f8d 2eba
00000240: 4691 60bd 4aa8 fbbc cffa b4bc ef34 f43c
00000250: 5bce 0f3d 1f55 7a3c ad15 713c ba7b faba
00000260: 75c3 093d f82c fd3c eeb9 36bb 6868 2f3d
00000270: 77a9 c5bb a563 f43b 775f 15bd 0f26 31bd
00000280: 761f 823b 05e4 0bbc b2bb b1bc c7a5 5bbd
00000290: ed3b 473d 1569 29bd 1917 fbbb 81a3 32bd
000002a0: 0b2f 0ebd ebc7 acbc 28c3 09bd efdf a03c
000002b0: 180e 3a3d 4334 f53c 2c95 3c3d 78a5 083d
000002c0: 43ed d43c ac8d c13c 5232 0cbd 5ed6 27bd
000002d0: 24ef 61bc 44fa bbbc 5966 03bd 17fe 5ebd
000002e0: 6e3a 263d 701b c8bc 7326 bb3c 0e07 bdbc
000002f0: 3d0f 55bd 7f9c 05b8 bf56 103d 1b91 08bd
00000300: 7142 213d 23c1 513d 973f 2cbc 550a 24ba
00000310: b92e 3a3d 2eac 103c e8e0 413d 3338 4d3d
00000320: 559d 0bbc 7975 573d 34c1 3d3d 2c17 823c
00000330: 1d73 1b3d 4649 1e3d b97d 433c 57da f3bc
00000340: 10d0 e23c 44f9 383d 4fec 04bd 4393 9dbc
00000350: 0feb 4d3d 4e64 573d 2cc7 443d 6280 ca3c
00000360: 33a6 213d 126d cdbc a932 1bbd c7ff 46bd
00000370: 42e8 3dbd 73fa 6c3d 201a 213d 0675 9dbc
00000380: a388 84bc bf33 57bd 6c08 73bc ce71 1a3d
00000390: 99fe eaba 5d89 22bc 4906 1abd c17b 9c3c
000003a0: da0b 6bba 7846 583d ecbd cbbc b23f 68bd
000003b0: 5b5f cdbc cb5a 053d a71b 0b3b 4023 07bd
000003c0: efe1 763c 2e70 96bc 8e0c 473d ca96 6f3b
000003d0: a6a8 123d 3b08 18bd 2ca5 193d f886 563d
000003e0: 5b67 85bc a4aa 2b3d 12cd 703d 4419 16bd
000003f0: b6ec b4bb 8659 593d f21f c73c 1756 653d

encoder2.sequence.0.block.4.weight f4 [32]
1.0 1.0 1.0 1.0 1.0 1.0 1.0 1.0
1.0 1.0 1.0 1.0 1.0 1.0 1.0 1.0
1.0 1.0 1.0 1.0 1.0 1.0 1.0 1.0
1.0 1.0 1.0 1.0 1.0 1.0 1.0 1.0
00000000: 0000 803f 0000 803f 0000 803f 0000 803f
00000010: 0000 803f 0000 803f 0000 803f 0000 803f
00000020: 0000 803f 0000 803f 0000 803f 0000 803f
00000030: 0000 803f 0000 803f 0000 803f 0000 803f
00000040: 0000 803f 0000 803f 0000 803f 0000 803f
00000050: 0000 803f 0000 803f 0000 803f 0000 803f
00000060: 0000 803f 0000 803f 0000 803f 0000 803f
00000070: 0000 803f 0000 803f 0000 803f 0000 803f

encoder2.sequence.0.block.4.bias f4 [32]
-2.1808646e-07 4.993541e-07 1.7643075e-07 -4.7364227e-07 -1.7224818e-07 3.8271276e-07 1.6086719e-07 8.42552e-10
8.676977e-08 4.3276998e-07 4.702645e-08 -6.6504235e-08 -2.0206726e-07 -2.1205459e-07 5.9549272e-08 -4.0624772e-07
-6.547784e-08 -4.5517922e-07 1.319698e-06 5.1475814e-07 5.842976e-09 -3.9102417e-08 -3.788592e-07 -7.446526e-09
-7.41701e-08 -3.7194897e-07 2.9888372e-07 6.918509e-08 1.2361716e-07 6.223822e-07 2.488774e-07 -1.5218061e-08
00000000: 262b 6ab4 5a0b 0635 ea70 3d34 e648 feb4
00000010: 38f3 38b4 a477 cd34 d6ba 2c34 5399 6730
00000020: 2f56 ba33 7457 e834 21fa 4933 17d1 8eb3
00000030: d3f7 58b4 1fb1 63b4 1ec3 7f33 431a dab4
00000040: d39c 8cb3 5b5f f4b4 7a20 b135 e92d 0a35
00000050: 5cc3 c831 90f1 27b3 0366 cbb4 56dc ffb1
00000060: 7247 9fb3 47b0 c7b4 4476 a034 e892 9433
00000070: a0bb 0434 c711 2735 739d 8534 dfb8 82b2

encoder2.sequence.0.block.4.running_mean f4 [32]
0.41810822 -0.29333165 0.2272935 -0.12677905 0.13038246 -0.24186522 -0.10872694 -0.086184494
0.23646545 -0.03128248 0.018181281 -0.204842 0.021406377 0.09708109 0.021572327 0.1570762
-0.070198044 -0.035251923 -0.0056601153 0.03459627 0.060012065 0.08037942 0.3185107 -0.03228303
-0.34005833 0.1726106 -0.06425939 -0.119742095 -0.09172432 0.019750886 0.062748246 -0.12483566
00000000: 4812 d63e 912f 96be a1bf 683e 5ed2 01be
00000010: fb82 053e 84ab 77be 3bac debd 7f81 b0bd
00000020: 0024 723e 0f22 00bd e9f0 943c 1ac2 51be
00000030: 6d5c af3c 73d2 c63d 73b8 b03c 95d8 203e
00000040: fec3 8fbd 5264 10bd 7d78 b9bb d2b4 0d3d
00000050: 36cf 753d f79d a43d d613 a33e 363b 04bd
00000060: 201c aebe d5c0 303e 6d9a 83bd 583b f5bd
00000070: f6d9 bbbd 9ccc a13c 2782 803d d7a9 ffbd

encoder2.sequence.0.block.4.running_var f4 [32]
0.26904762 0.20818539 0.12468488 0.092820846 0.20697491 0.21594423 0.11544877 0.08860663
0.11304857 0.1102582 0.11632873 0.19457397 0.083797894 0.1073357 0.08831482 0.11450825
0.12781675 0.052836698 0.08305854 0.13811317 0.093901694 0.11385169 0.21851268 0.08321141
0.11484351 0.14228131 0.11230225 0.07278847 0.17163599 0.13846536 0.09542781 0.094696805
00000000: 9cc0 893e 8d2e 553e c95a ff3d db18 be3d
00000010: 3bf1 533e 7c20 5d3e 6870 ec3d 6577 b53d
00000020: 0286 e73d 0dcf e13d c23d ee3d 663e 473e
00000030: 3b9e ab3d d2d2 db3d 66de b43d 4d83 ea3d
00000040: 65e2 023e 4b6b 583d 991a aa3d 8a6d 0d3e
00000050: 884f c03d 132b e93d cac1 5f3e be6a aa3d
00000060: 1333 eb3d 31b2 113e b9fe e53d 1f12 953d
00000070: 58c1 2f3e ddc9 0d3e a86f c33d 66f0 c13d

encoder3.sequence.0.block.0.weight f4 [64, 32, 3, 3]
-0.009966774 0.016786512 0.02077957 -0.030638164 0.041920703 -0.02560391 -0.021201637 0.044121046
-0.05474831 0.015094108 0.026392842 0.007350244 -0.00866378 0.015788216 0.02955495 -0.021739976
0.031427618 -0.03559445 0.05028631 0.02680468 0.024437364 -0.051887237 -0.051008992 0.030229181
0.0020630055 0.015256421 -0.03344146 -0.051449593 -0.00068798865 -0.007671483 -0.034730926 -0.053906515
0.02696634 -0.02413142 0.046062812 -0.05253122 0.018444292 -0.0190476 -0.00039820545 -0.04434221
-0.043389168 0.011710114 -0.030073354 -0.00046119216 -0.056982882 0.026203314 -0.023494156 -0.050887663
0.055233628 -0.0030454649 0.010218607 0.036273167 0.032266974 0.023433914 0.055595323 0.03837643
0.029359523 -0.04183183 0.03736285 -0.028959956 -0.008698576 0.028269991 -0.054259825 -0.03970607
0.01326327 0.0069132186 -0.02839797 -0.01235075 0.05454372 -0.038621742 -0.037625764 -0.015875721
0.045755044 0.05878682 -0.03585031 0.054222643 -0.017181762 0.0031802042 0.013166652 0.030122716
0.015817977 0.022439161 -0.0056356583 0.043849703 -0.040300477 -0.021859452 0.018403916 0.008303141
-0.022717139 0.049702924 -0.005856731 0.0092657255 0.013726545 -0.04865543 0.01737161 0.013004983
-0.023398729 0.012895031 -0.02466671 -0.036062468 -0.04519913 0.018321242 -0.010581359 0.021198235
-0.014044426 0.034080118 0.039778043 -0.04687211 -0.028777672 -0.036364835 0.057701383 0.04940616
-0.009252182 -0.04160352 0.0071200114 0.05293376 -0.049564954 0.017941065 -0.0064434083 0.037376884
0.03055582 0.009465185 0.011402701 0.03344724 0.008832548 -0.057943292 -0.03933007 0.043292273
-0.009831981 -0.026896974 -0.048320033 -0.03805413 -0.04189908 0.056014728 -0.035858583 0.010894615
0.0056995084 -0.04700249 -0.020984635 -0.009498628 -0.009101556 0.029574268 -0.05008208 -0.009147601
-0.011389328 0.030713456 -0.003906471 -0.03760534 0.036393207 0.011502528 -0.049899515 0.05055924
0.01242647 -0.05077051 -0.044586428 -0.0023023752 -0.0533615 -0.050769236 -0.057524774 -0.03892029
-0.027102256 0.058359884 -0.028385995 0.029999038 -0.004315051 0.056191243 0.051725205 0.04384113
0.02927242 -0.042784087 0.020661663 -0.04783366 0.023835553 0.010503191 -0.032764833 0.027289059
-0.0020775371 0.0031256161 -0.03897716 -0.04853756 0.0013169454 0.041149374 -0.043885786 0.018398061
0.04110795 0.048177626 -0.03800604 -0.018107193 0.023440333 0.033650186 -0.0037552621 -0.05462727
-0.056478582 -0.041864786 -0.049211983 -0.01451579 -0.042482838 0.007464232 0.049710073 0.007223242
0.051783163 0.033247527 -0.008865259 0.037413243 0.050960205 0.04112551 0.0035355268 0.027111057
-0.010165739 0.0045518014 -0.033590075 -0.03075521 -0.027422287 -0.055745535 0.032793514 -0.019253174
0.038058486 -0.024362369 -0.019279994 -0.034795918 -0.056800626 0.056046724 -0.04934354 -0.027025707
-0.04758838 -0.019498121 0.028328484 -0.013214444 -0.007972111 0.006362996 0.03192798 -0.027403833
0.04119815 -0.037015162 0.012760952 -0.051481567 -0.0009048532 -0.039020866 -0.042390414 -0.03422372
0.045171425 0.027787987 -0.042754035 0.03732028 -0.044420093 -0.054185487 -0.033131678 -0.008919267
0.017113047 -0.04141732 0.017807003 -0.052348904 0.050917804 0.0464386 -0.042106073 0.048503857
00000000: ae4b 23bc de83 893c eb39 aa3c e3fc fabc
00000010: 0bb5 2b3d 4bbf d1bc 0eaf adbc 45b8 343d
00000020: c43f 60bd 474d 773c cd35 d83c 51da f03b
00000030: 87f2 0dbc 4a56 813c 391d f23c 0918 b2bc
00000040: 3fba 003d 7ccb 11bd 05f9 4d3d 7d95 db3c
00000050: de30 c83c b687 54bd ceee 50bd 30a3 f73c
00000060: 7d33 073b 11f6 793c eaf9 08bd cfbc 52bd
00000070: 235a 34ba 1061 fbbb 0442 0ebd 14cd 5cbd
00000080: 84e8 dc3c 41af c5bc 5cac 3c3d fa2a 57bd
00000090: 7c18 973c b609 9cbc 3bc6 d0b9 2da0 35bd
000000a0: d7b8 31bd c7db 3f3c 655c f6bc 2acc f1b9
000000b0: e266 69bd 55a8 d63c d176 c0bc 956f 50bd
000000c0: a83c 623d 6c96 47bb f26b 273c 2c93 143d
000000d0: 602a 043d 7bf8 bf3c ecb7 633d 9a30 1d3d
000000e0: 6283 f03c da57 2bbd ca09 193d 6e3d edbc
000000f0: 7984 0ebc 7896 e73c 8d3f 5ebd d5a2 22bd
00000100: 304e 593c 4888 e23b dca2 e8bc cd5a 4abc
00000110: 3c69 5f3d d531 1ebd 791d 1abd cd0d 82bc
00000120: a469 3b3d 73ca 703d c6d7 12bd 9018 5e3d
00000130: c4c0 8cbc f96a 503b f1b8 573c eac3 f63c
00000140: b494 813c 55d2 b73c 54ab b8bb bf9b 333d
00000150: 1d12 25bd 9812 b3bc cfc3 963c e609 083c
00000160: 4b19 babc 4b95 4b3d d2e9 bfbb 45cf 173c
00000170: 4de5 603c eb4a 47bd e84e 8e3c da12 553c
00000180: b1ae bfbc ae45 533c d711 cabc 3db6 13bd
00000190: b922 39bd 6e16 963c 705d 2dbc eca7 ad3c
000001a0: 981a 66bc 9897 0b3d 4dee 223d f8fc 3fbd
000001b0: 27bf ebbc 4bf3 14bd 4958 6c3d 1d5e 4a3d
000001c0: 7796 17bc 7468 2abd fc4e e93b 12d1 583d
000001d0: 9f04 4bbd 24f9 923c 3a23 d3bb 8118 193d
000001e0: 3350 fa3c dd13 1b3c 65d2 3a3c f9ff 083d
000001f0: 64b6 103c f255 6dbd 9118 21bd 3d53 313d
00000200: 5116 21bc 0b57 dcbc 3aeb 45bd a6de 1bbd
00000210: 5f9e 2bbd b36f 653d 73e0 12bd 547f 323c
00000220: f1c2 ba3b af85 40bd f8e7 abbc 22a0 1bbc
00000230: b11e 15bc bc45 f23c de22 4dbd d2df 15bc
00000240: 4e9a 3abc c99a fb3c db01 80bb 0f08 1abd
00000250: 0b11 153d 1975 3c3c 6f63 4cbd 3517 4f3d
00000260: 6598 4b3c bdf4 4fbd 42a0 36bd 72e3 16bb
00000270: 9791 5abd 67f3 4fbd 199f 6bbd e26a 1fbd
00000280: 8d05 debc c60a 6f3d bf89 e8bc 8bc0 f53c
00000290: 4565 8dbb ca28 663d cfdd 533d c292 333d
000002a0: b7cc ef3c 5e3e 2fbd a642 a93c 3aed 43bd
000002b0: c742 c33c 9315 2c3c 6b34 06bd 4e8d df3c
000002c0: 4a27 08bb 23d7 4c3b 84a6 1fbd 52cf 46bd
000002d0: 5b9d ac3a 3f8c 283d 95c1 33bd 88b7 963c
000002e0: cf60 283d e755 453d 39ac 1bbd 8955 94bc
000002f0: f105 c03c c7d4 093d d81a 76bb d8c0 5fbd
00000300: 1656 67bd 697a 2bbd 8192 49bd a3d3 6dbc
00000310: 7c02 2ebd 8496 f43b ca9c 4b3d f2b0 ec3b
00000320: 951a 543d 8f2e 083d 973f 11bc a13e 193d
00000330: a6bb 503d 3973 283d 4cb4 673b 0218 de3c
00000340: 338e 26bc 4727 953b bf95 09bd 5af2 fbbc
00000350: b4a4 e0bc 6e55 64bd 7e52 063d d5b8 9dbc
00000360: 37e3 1b3d 9793 c7bc 14f1 9dbc 2a86 0ebd
00000370: c6a7 68bd 4091 653d 741c 4abd 0465 ddbc
00000380: 08ec 42bd 86ba 9fbc 2311 e83c 6581 58bc
00000390: 759d 02bc ae80 d03b eac6 023d 017e e0bc
000003a0: 64bf 283d 369d 17bd 5013 513c 56de 52bd
000003b0: ac33 6dba 58d4 1fbd 92a1 2dbd 2c2e 0cbd
000003c0: ac05 393d a2a3 e33c db1e 2fbd 26dd 183d
000003d0: d8f1 35bd 9af1 5dbd 15b5 07bd 1e22 12bc
000003e0: a930 8c3c 35a5 29bd fedf 913c ce6b 56bd
000003f0: 308f 503d 6736 3e3d 6b77 2cbd fbab 463d

encoder3.sequence.0.block.1.weight f4 [64]
1.0 1.0 1.0 1.0 1.0 1.0 1.0 1.0
1.0 1.0 1.0 1.0 1.0 1.0 1.0 1.0
1.0 1.0 1.0 1.0 1.0 1.0 1.0 1.0
1.0 1.0 1.0 1.0 1.0 1.0 1.0 1.0
1.0 1.0 1.0 1.0 1.0 1.0 1.0 1.0
1.0 1.0 1.0 1.0 1.0 1.0 1.0 1.0
1.0 1.0 1.0 1.0 1.0 1.0 1.0 1.0
1.0 1.0 1.0 1.0 1.0 1.0 1.0 1.0
00000000: 0000 803f 0000 803f 0000 803f 0000 803f
00000010: 0000 803f 0000 803f 0000 803f 0000 803f
00000020: 0000 803f 0000 803f 0000 803f 0000 803f
00000030: 0000 803f 0000 803f 0000 803f 0000 803f
00000040: 0000 803f 0000 803f 0000 803f 0000 803f
00000050: 0000 803f 0000 803f 0000 803f 0000 803f
00000060: 0000 803f 0000 803f 0000 803f 0000 803f
00000070: 0000 803f 0000 803f 0000 803f 0000 803f
00000080: 0000 803f 0000 803f 0000 803f 0000 803f
00000090: 0000 803f 0000 803f 0000 803f 0000 803f
000000a0: 0000 803f 0000 803f 0000 803f 0000 803f
000000b0: 0000 803f 0000 803f 0000 803f 0000 803f
000000c0: 0000 803f 0000 803f 0000 803f 0000 803f
000000d0: 0000 803f 0000 803f 0000 803f 0000 803f
000000e0: 0000 803f 0000 803f 0000 803f 0000 803f
000000f0: 0000 803f 0000 803f 0000 803f 0000 803f

encoder3.sequence.0.block.1.bias f4 [64]
5.8237593e-09 4.4406379e-10 -1.7543792e-08 -3.0138754e-08 -2.6091225e-08 2.6665333e-08 8.420688e-09 8.1044735e-09
9.328919e-09 -9.165671e-09 -5.1769497e-08 -6.0586047e-09 1.9907e-08 -1.04644995e-08 -1.3762402e-08 1.3597596e-08
3.1699695e-08 -1.4668515e-09 2.1962178e-08 -7.839343e-09 -2.0329336e-08 -5.7501e-08 8.384275e-09 1.8081354e-09
3.600121e-08 2.1481792e-08 -4.0429683e-08 -1.4072708e-08 -2.5518222e-08 -9.470662e-10 -1.6711295e-08 4.6663433e-09
4.4610278e-08 7.955262e-09 1.08859926e-08 -1.886383e-08 -6.3063696e-09 -3.3100736e-08 4.0899977e-08 1.0149704e-08
-2.9914673e-08 3.763794e-09 3.2416473e-08 1.6867636e-08 1.6728242e-08 1.503299e-08 3.1744012e-08 -3.667713e-12
-3.6101138e-08 -2.4460022e-08 -7.144884e-09 -1.47789345e-08 -1.2150545e-08 -1.0762653e-08 -1.9625851e-08 6.6927055e-09
-4.4840746e-08 7.129877e-09 -1.3006949e-08 4.9140933e-08 7.9726874e-08 9.646525e-09 -8.235877e-09 -3.2400372e-08
00000000: 541a c831 6c20 f42f 35b3 96b2 e971 01b3
00000010: 361f e0b2 b00d e532 94aa 1032 da3b 0b32
00000020: 0545 2032 0c77 1db2 2a59 5eb3 0d2c d0b1
00000030: f5ff aa32 5bc7 33b2 af6f 6cb2 dc9a 6932
00000040: 2f26 0833 409a c9b0 57a7 bc32 ccad 06b2
00000050: afa0 aeb2 05f7 76b3 6e0a 1032 1c82 f830
00000060: c09f 1a33 f686 b832 e8a4 2db3 6dc4 71b2
00000070: 2a33 dbb2 ee29 82b0 878c 8fb2 9755 a031
00000080: 8599 3f33 9dab 0832 1a05 3b32 000a a2b2
00000090: 6aaf d8b1 a52a 0eb3 00aa 2f33 df5e 2e32
000000a0: 887b 00b3 af52 8131 4a3a 0b33 53e4 9032
000000b0: cbb1 8f32 e521 8132 e956 0833 d20b 81ac
000000c0: 9f0d 1bb3 281c d2b2 107f f5b1 71e6 7db2
000000d0: a9be 50b2 a6e6 38b2 b495 a8b2 a9f5 e531
000000e0: ec96 40b3 10fb f431 2b75 5fb2 070f 5333
000000f0: 5036 ab33 deb9 2532 c57d 0db2 9628 0bb3

encoder3.sequence.0.block.1.running_mean f4 [64]
-0.26014826 -0.06613463 -0.24674001 0.010562557 -0.6361741 0.14929777 -0.10137461 -0.6766595
0.4373048 -0.009580112 0.42184508 0.1850715 0.020938776 -0.19097327 -0.06117693 -0.53613365
-0.15913464 -0.30245796 0.31909394 -0.19453321 0.29579028 -0.3564092 -0.45034438 -0.04372454
-0.33697456 -0.19974953 0.3129022 -0.15556814 -0.56209147 -0.23313123 -0.2282674 -0.049449652
0.31036434 0.5626794 -0.068051755 -0.35788786 0.24475187 -0.03056723 0.51636714 -0.3286828
0.34763774 -0.5497643 0.053770855 -0.010553161 0.19542636 0.08768241 0.02177626 -0.23532803
-0.4098124 0.049519263 0.029192695 0.10677599 -0.02238906 -0.21742676 0.16006565 -0.2938508
0.8153475 -0.1976206 -0.2547836 0.41597706 -0.035100807 0.291939 0.3286191 0.059048235
00000000: 2732 85be 9871 87bd 6aa9 7cbe 930e 2d3c
00000010: 4edc 22bf 84e1 183e 7e9d cfbd 8f39 2dbf
00000020: 6ae6 df3e e7f5 1cbc 14fc d73e 6283 3d3e
00000030: cc87 ab3c 7f8e 43be a994 7abd 0e40 09bf
00000040: 31f4 22be c5db 9abe 4860 a33e b733 47be
00000050: d371 973e 447b b6be 8a93 e6be 8118 33bd
00000060: ee87 acbe 248b 4cbe b834 a03e 414d 1fbe
00000070: 3ae5 0fbf f4b9 6ebe eebe 69be b88b 4abd
00000080: 13e8 9e3e c20b 103f b85e 8bbd 143d b7be
00000090: 3ca0 7a3e 2168 fabc a330 043f 1d49 a8be
000000a0: 93fd b13e 5abd 0cbf d43e 5c3d 2ae7 2cbc
000000b0: d91d 483e d692 b33d 2164 b23c d5f9 70be
000000c0: eed2 d1be b6d4 4a3d 8525 ef3c 5fad da3d
000000d0: 4369 b7bc 1fa5 5ebe 40e8 233e 9d73 96be
000000e0: 9dba 503f 0e5d 4abe ff72 82be f2fa d43e
000000f0: ddc5 0fbd 0779 953e c340 a83e 90dc 713d

encoder3.sequence.0.block.1.running_var f4 [64]
0.18792889 0.17687157 0.3568383 0.12282772 0.52595294 0.19908275 0.1754989 0.4090411
0.28693646 0.2104143 0.5733137 0.4169798 0.14338084 0.19299865 0.2572295 0.2601368
0.24658123 0.35888302 0.16888484 0.27372196 0.2171424 0.23514806 0.37835914 0.1412178
0.21947354 0.14112972 0.29455915 0.1650728 0.8761515 0.21042039 0.2572593 0.10835214
0.1645969 0.52749765 0.31622168 0.21049117 0.206007 0.10365435 0.6577433 0.23529951
0.24002886 0.14758861 0.16826738 0.15631433 0.32653314 0.16263276 0.1570577 0.23937395
0.35550454 0.13905612 0.1859314 0.14045168 0.13330276 0.24260508 0.2437958 0.16879296
0.6554437 0.13989422 0.22744313 0.4823345 0.20232539 0.17440307 0.20681958 0.32326534
00000000: 6e70 403e d21d 353e 82b3 b63e 1a8d fb3d
00000010: daa4 063f 59dc 4b3e fcb5 333e d66d d13e
00000020: 56e9 923e d976 573e b0c4 123f 607e d53e
00000030: 6dd2 123e 70a1 453e 96b3 833e a730 853e
00000040: ca7f 7c3e 84bf b73e 26f0 2c3e 4925 8c3e
00000050: 945a 5e3e a7ca 703e 4ab8 c13e 669b 103e
00000060: acbd 603e 4f84 103e 75d0 963e d808 293e
00000070: 774b 603f 7178 573e 7eb7 833e bae7 dd3d
00000080: 178c 283e 160a 073f cfe7 a13e ff8a 573e
00000090: 80f3 523e bb48 d43d dd61 283f 5bf2 703e
000000a0: 20ca 753e 7821 173e 494e 2c3e dd10 203e
000000b0: 5a2f a73e 3489 263e bcd3 203e 721e 753e
000000c0: b104 b63e ba64 0e3e cd64 3e3e 91d2 0f3e
000000d0: 8580 083e 776d 783e 9ba5 793e 10d8 2c3e
000000e0: 29cb 273f 6e40 0f3e dae6 683e 8cf4 f63e
000000f0: 632e 4f3e b896 323e 83c8 533e 0983 a53e
